model-generator/model.onnx (onnx, 1497 bytes, 4 tensors)

0.weight f4 [10, 20]
000000 08 a7 96 3d a4 d9 1a 3e 36 27 97 bd 1c 35 28 3e
       0.073560774 0.15122086 -0.07380526 0.1642651
000010 dc d0 cf 3d 25 a2 ee bd 88 d8 42 bd 12 aa 5a 3e
       0.10147259 -0.1165202 -0.04756978 0.21353939
000020 08 7f 0e 3e 42 3d 0a 3e d1 ef e4 bd c5 fb 35 be
       0.13915646 0.1349993 -0.11178554 -0.17771824
000030 d7 98 10 be 00 e0 2f bb f6 84 47 3e c4 bb 4f bd
       -0.14120804 -0.0026836395 0.19484314 -0.050716177
000040 89 e3 31 be 43 c3 41 be 38 11 4d 3e c0 92 a5 3d
       -0.17371954 -0.18922143 0.200261 0.08084631
000050 80 84 03 3e 92 37 11 3e 80 a8 10 3b a0 58 5e 3e
       0.12843513 0.14181355 0.002207309 0.21713495
000060 64 5f 3d 3e a2 de 30 3e b2 13 8c bd e0 bd c4 3c
       0.1849342 0.17272428 -0.06839694 0.02401632
000070 bc dd 56 be 58 f2 80 bd 78 49 d6 bc b2 d2 c2 bd
       -0.20983022 -0.062962234 -0.02615808 -0.09512843
000080 58 48 01 3e 08 5c 42 bd 08 03 42 bd 92 42 06 3e
       0.12625253 -0.04745105 -0.047366172 0.13111332
000090 d8 2f a5 bc b6 3f 10 3e 56 76 45 be ac ed 66 bd
       -0.020164415 0.14086804 -0.19283423 -0.056379005
0000a0 dc 6b af bd c8 cf ad bc 90 e3 ac 3d c0 f5 df 3d
       -0.085654944 -0.021217242 0.084418416 0.10935545
0000b0 d0 78 ae bd 74 cd 6e bd b0 ac 94 3d 68 d9 4d 3e
       -0.08519137 -0.058301404 0.072595 0.20102465
0000c0 bf c7 e2 bd c2 9f f7 bd 50 3b 44 be 2f d9 23 be
       -0.11073255 -0.12091018 -0.19163251 -0.16000818
0000d0 00 da cc b9 fa 9c 04 be ee 2e 59 be 50 98 6c 3d
       -0.00039072335 -0.12950507 -0.21209309 0.057762444
0000e0 3a 5c 89 bd 06 d2 9a bd 95 70 eb bd 40 50 e7 3b
       -0.06707044 -0.0755959 -0.11496083 0.007059127
0000f0 6c af 8c 3d dc f5 5c bd 60 f6 d1 3b c8 2f c3 3c
       0.068693966 -0.053945407 0.006407544 0.023826495
000100 20 39 f9 bd 0a 11 44 3e 60 d5 63 bc 3c f7 58 3e
       -0.12169099 0.19147125 -0.013905853 0.21188062
000110 94 d5 87 3d d0 31 f7 3c 40 68 f7 3c 90 2b 82 bc
       0.06632534 0.03017512 0.030201077 -0.015889913
000120 c0 76 fe 3b 99 a5 5f be 86 9b 27 3e 68 d5 24 be
       0.007765621 -0.21840514 0.16367921 -0.16097033
000130 78 3b 52 3d 20 d8 1a 3d 1c bd cf 3d 8a f7 0b 3e
       0.051326245 0.03780377 0.101434916 0.13668647
000140 79 de 45 be c6 bc 00 3e b9 87 0e be 80 59 4c 3d
       -0.19323148 0.12572011 -0.13918962 0.04989004
000150 98 e3 56 3e ea e7 83 bd a4 e2 88 3d 84 9d af 3d
       0.20985258 -0.064407185 0.06683853 0.085749656
000160 26 c8 62 3e 42 0b 1b 3e 75 3f 0a be 24 ce bd 3d
       0.22146663 0.15141013 -0.1350077 0.09267834
000170 ad e8 e4 bd 98 cf 36 bd c0 77 7b bc 7c 0a 90 3d
       -0.11177192 -0.04463157 -0.015348375 0.0703325
000180 50 55 38 3c 14 e4 13 be 25 0e 03 be f8 b8 95 bd
       0.011250809 -0.14442474 -0.12798364 -0.073106706
000190 14 03 20 be 00 e9 98 3c d8 6f 1c 3e 38 d5 63 3d
       -0.15626174 0.01866579 0.1527704 0.055623263
0001a0 e0 bb cb 3d 2c 00 47 3e 58 74 2c bd 96 48 37 3e
       0.09947944 0.1943366 -0.04210314 0.17898783
0001b0 94 56 9d 3d 56 85 cd bd 2a 4a 4b 3e bc dd 4a bd
       0.07682529 -0.100351974 0.1985251 -0.04952787
0001c0 10 14 10 3e 74 6f ae 3d 5f ff 42 be e9 4c ee bd
       0.14070153 0.08517352 -0.19042729 -0.11635763
0001d0 9c 5b 44 3e 34 95 b1 bd 40 32 eb 3c d8 98 df 3d
       0.19175571 -0.08671036 0.028710485 0.109178245
0001e0 50 17 92 3c 7c ec 73 bd 9c 7a d3 3d fa 5b 05 be
       0.017833382 -0.0595517 0.1032612 -0.13023368
0001f0 00 00 b6 bc 14 7c ba bd 50 39 46 3e d8 c8 3b 3e
       -0.022216797 -0.09105697 0.193578 0.18338335
000200 eb 6c f0 bd 30 7e e1 3c a8 54 17 3e e4 f4 50 3e
       -0.117395245 0.027525991 0.14778388 0.20405918
000210 f0 91 23 be d4 10 a0 3d 3c 0b cd 3d d0 c8 13 3e
       -0.1597364 0.0781571 0.100119084 0.14432073
000220 08 7f c6 3c 78 8b 3b 3e ae da 5e be 70 32 53 be
       0.024230495 0.18314922 -0.21763107 -0.20624709
000230 d0 9d ea 3c 80 7b b4 3a a2 c2 1f 3e d0 7f 5d 3d
       0.028639704 0.0013769716 0.1560159 0.05407697
000240 80 24 33 3e 90 f8 14 bc 08 bb f4 3d e6 30 9a bd
       0.17494392 -0.009092465 0.11949736 -0.07528858
000250 ca 85 2f 3e f0 6e ac 3d 88 22 bb 3c eb 53 5e be
       0.1714088 0.08419597 0.022843614 -0.217117
000260 b8 6d 98 3d 66 1b 22 3e ac 00 49 bd f0 44 2f bc
       0.07442802 0.15830764 -0.049072906 -0.010697588
000270 78 58 9f 3d 28 35 96 3c 88 17 29 3e 10 1c 33 3d
       0.07780546 0.018335894 0.16512883 0.043727934
000280 74 74 06 be 64 e1 fa bd b2 21 c9 bd 20 ac 47 3d
       -0.13130361 -0.12250021 -0.0982088 0.048748136
000290 40 8c 15 3b 72 23 f6 bd fe ce 0f 3e 5c 38 e2 3d
       0.0022819191 -0.120184794 0.14043805 0.11045906
0002a0 a8 52 4f 3e 8c 9c 1b 3e 98 6e 52 be 0d 52 53 be
       0.20246375 0.15196437 -0.2055 -0.20636769
0002b0 90 b6 3e 3e e8 88 5c 3d 58 db 91 3d 80 99 71 bd
       0.1862433 0.0538415 0.071219146 -0.05898428
0002c0 48 c9 39 3e 08 3f 99 3d d4 9a 09 3e 80 61 ea 3d
       0.18143189 0.074827254 0.13437968 0.11444378
0002d0 f8 5b 38 be aa fd 36 be 4e 51 07 be 40 dc 0b 3e
       -0.18003833 -0.17870203 -0.13214609 0.13658237
0002e0 70 2a b2 bd a2 c8 5b 3e be 13 4d 3e f0 c8 86 3c
       -0.086995006 0.21463254 0.20027062 0.016453236
0002f0 ee 3e 2a 3e a6 1d c1 bd 58 37 09 bd 24 84 5f bd
       0.16625568 -0.09429483 -0.033500046 -0.05456938
000300 8a b6 d1 bd 58 0b d7 3d 00 c6 78 bb b4 64 ad bd
       -0.10239895 0.105002105 -0.0037959814 -0.08466473
000310 40 11 12 bb c0 93 ba bc e0 0d 10 3c de 26 04 be
       -0.0022288114 -0.02277553 0.008792371 -0.12905452

0.bias f4 [10]
000000 fe 59 e8 bd 5e 48 1c 3e 03 ab 57 be 2c ec 0d 3e
       -0.1134529 0.15261981 -0.2106133 0.13859624
000010 b0 61 e2 bc d6 67 63 3e d8 32 31 3d c2 8e 63 3e
       -0.027634472 0.22207579 0.04326138 0.22222427
000020 d0 4d 0c be 54 36 83 bd
       -0.13701558 -0.06406847

2.weight f4 [5, 10]
000000 25 80 97 3e da b0 5a 3e 3d 6f 83 be 94 23 36 3e
       0.29589954 0.21356526 -0.25670806 0.1778701
000010 88 65 46 be e4 8d 5a be b8 bf e0 3d f8 69 1d bd
       -0.19374669 -0.2134319 0.109740674 -0.038431138
000020 f0 17 95 bd e0 4f b1 bc 87 31 8d 3e d3 e8 80 3e
       -0.07279956 -0.021644533 0.2757685 0.2517763
000030 ca df ad bd 90 35 da bc c0 30 e9 bb 5d 76 3f be
       -0.0848995 -0.026636869 -0.007116407 -0.18697496
000040 1b b3 33 be 66 8f 21 be 0e a3 33 3e 34 f6 ca 3d
       -0.17548792 -0.15777358 0.17542669 0.09910241
000050 da bf 8b be 32 4e f3 bd 30 d0 fa bd bc 43 53 be
       -0.2729481 -0.11880149 -0.1224674 -0.20631307
000060 fd 1a 9f 3e 52 3a 17 3e aa 4d 39 be 56 ac 76 3e
       0.31075278 0.14768341 -0.18096033 0.24089178
000070 c2 c0 12 be 30 68 fa bc ce 28 5e be e0 e6 5d 3d
       -0.14331344 -0.030567259 -0.21695253 0.054175258
000080 00 c6 dc 3d 3a 62 29 be e0 fd f8 3d 92 10 b6 bd
       0.10779953 -0.16541377 0.12157798 -0.08889879
000090 28 4f 5c bd f0 9d 29 bd 40 f1 b6 bd 26 ca 73 3e
       -0.053786427 -0.041410387 -0.089327335 0.23807582
0000a0 26 54 20 3e ba 72 f7 bd 7e 18 9f bd 1e 9a ea bd
       0.156571 -0.12082429 -0.077683434 -0.11455177
0000b0 e1 77 99 3e 00 47 41 3b fe 30 31 3e 4e 0f f3 bd
       0.29974273 0.0029491782 0.17303845 -0.118681535
0000c0 3e 99 0b 3e e3 5f 93 3e
       0.13632676 0.28784093

2.bias f4 [5]
000000 cc 4d 79 be 00 eb 83 be 58 7b 69 be 79 f2 86 3e
       -0.24346083 -0.25765228 -0.22800958 0.26356867
000010 36 ca 33 be
       -0.17557606
