model-generator/model_simple.onnx (onnx, 1497 bytes, 4 tensors)

0.weight f4 [10, 20]
00000000: a0d2 463e c8b2 2bbe ac1a e63d d0af a5bc
00000010: 4899 4c3e 188f bd3d e2c8 613e 2876 a5bd
00000020: 92a8 d6bd a41e 6abd 5d7f 42be c0dc 783b
00000030: 94b0 52be d700 43be 9775 4bbe cead e0bd
00000040: 4a9a bebd 9df0 05be 289d 533e 4063 c4bc
00000050: 6c32 37be 206a 5d3e 00b8 ad3a 45f8 40be
00000060: 8c74 04be 1831 2e3e 4e8c 83bd a078 98bc
00000070: c8b8 5e3d 6041 8d3d d024 483c 5e6f 57be
00000080: 224a 133e 0c1b b8bd b229 e8bd e0d5 28be
00000090: 9e19 1dbe 59ae f0bd 78e4 8d3d 4a70 3abe
000000a0: b5ae 4ebe baa8 2c3e 80b2 9fba 0a3a 64be
000000b0: 8e57 96bd e834 e2bd 1c66 be3d 89ab dfbd
000000c0: 4894 b53d e0e1 92bc 1658 23be d87b 2d3e
000000d0: 2041 f4bd 50a9 aa3c eaaa cbbd 3084 2e3c
000000e0: ec29 38be 04a1 9cbd 6000 273d d22b 003e
000000f0: 30b5 7d3c f802 ffbd 4e27 5f3e f441 963d
00000100: 7d3f fabd 620f 97bd f6c5 1fbe 62a2 dfbd
00000110: 288e 76bd 2870 eebd c09e 44be c03e cf3b
00000120: 388d 013e 6403 a13d 2401 8c3d b6e5 063e
00000130: 4912 f7bd 0069 4d3a 96d0 263e fdba 0cbe
00000140: 14fd de3d d850 2ebd 107f 9a3c 463d 3ebe
00000150: 60d3 9e3b 3c7c 15bd 6098 c5bd 08ff dabd
00000160: 5c49 fa3d cc67 143e 6cb4 373e 7013 e33d
00000170: 56b3 493e 98bd 86bc 08a9 293e 90ce 08be
00000180: 381f 553e f2ed 003e 4627 4a3e e0fe 4fbd
00000190: 54ff 4d3e c02b 5f3d 7e4d 55be 65e5 1ebe
000001a0: 6817 f3bc e2c7 2c3e e0dc c3bb ea58 433e
000001b0: 7435 3fbd 4868 22bd 98ed 97bc f4b5 c93d
000001c0: 0047 173b d4ce 5cbe 35fb fbbd 25ad f6bd
000001d0: f077 b9bd c280 2b3e 70f8 53be 58e0 793d
000001e0: f0b9 d83c 70c9 d5bc 34a7 c9bd c5fe 60be
000001f0: 18f7 febc 3059 6a3d a053 a4bb b454 b7bd
00000200: 682e e0bc d0fa 86bd de7c 433e 2069 44be
00000210: a81a d9bc 009a 583e 4041 c8bd b003 d03c
00000220: 683b c6bd 34d6 3e3e 46b9 4ebe f8bc 533d
00000230: 944d 873d a431 9c3d c0ea a4bc 8c17 573e
00000240: 7efb 45be e0c3 583d 1a44 02be f6b4 acbd
00000250: 62dc b9bd f0e5 3abc 5c05 b3bd 2080 a6bd
00000260: 9c65 dc3d c002 09be 881d 25be 40ef 4c3e
00000270: f051 31bc c838 8e3c a2a8 a9bd 5463 453e
00000280: a016 343e 8094 823c 3a81 0abe 7448 24be
00000290: 703d 323c 6cf1 de3d 698b d1bd 061d 223e
000002a0: 28e0 373d 797d fcbd c88b cd3c d079 393d
000002b0: 18f9 903d 2abb 04be 1768 61be 488e 5f3e
000002c0: 383f e2bd 103f adbc 785d 00be 5cba fd3d
000002d0: b3f9 4bbe aa7e 35be fae0 5abe 9a0d 083e
000002e0: 6cb7 66bd e0ab 59bd 5006 473d fa16 213e
000002f0: b0db fd3c 18aa 4a3d d0eb 13bc ca2d 113e
00000300: 0252 4fbe 44a1 833d dbcb 41be 581f 263d
00000310: 6310 d2bd b832 223e fa5b 22be a090 393d
0.19416285 -0.16767418 0.11235556 -0.020225435 0.19980347 0.092558086 0.22049287 -0.08079177
-0.10481371 -0.057158127 -0.18993898 0.0037973374 -0.20575172 -0.19043289 -0.19869076 -0.109706506
-0.09306772 -0.13080068 0.20665419 -0.023973107 -0.17890328 0.21622515 0.0013253689 -0.18844707
-0.12935084 0.17010915 -0.06423245 -0.018612206 0.05437544 0.06897235 0.012215808 -0.21038577
0.14383748 -0.08989534 -0.11336078 -0.16487837 -0.15341803 -0.11752004 0.069283426 -0.18206897
-0.20183833 0.16861239 -0.0012183934 -0.22287765 -0.073409185 -0.11045247 0.092968196 -0.109213896
0.08866173 -0.017929971 -0.15951571 0.16941774 -0.11926484 0.020832688 -0.09944709 0.010651633
-0.17984742 -0.07647899 0.040771842 0.12516716 0.015485093 -0.12451738 0.21792337 0.07336798
-0.12219141 -0.07375981 -0.1560286 -0.10919644 -0.060194165 -0.11642486 -0.19201183 0.006324619
0.12651527 0.07861975 0.06836155 0.13173565 -0.120640345 0.00078357756 0.16290507 -0.13743205
0.108881146 -0.042557567 0.018859416 -0.18578061 0.004846975 -0.036495432 -0.09648204 -0.106931746
0.122210234 0.1449272 0.17939919 0.11087692 0.19697317 -0.016447827 0.16568387 -0.13360047
0.2081269 0.12590769 0.19741544 -0.050780177 0.20116931 0.054485083 -0.20830342 -0.15517195
-0.029674247 0.16873124 -0.005977258 0.19076887 -0.046681836 -0.03965023 -0.01854591 0.09849158
0.002308309 -0.21563274 -0.12303773 -0.120447434 -0.090560794 0.16748336 -0.2070024 0.061004966
0.02645585 -0.02609703 -0.098463446 -0.21972187 -0.031123683 0.057213962 -0.0050148517 -0.08951703
-0.027365878 -0.065908074 0.19090602 -0.19180727 -0.026501969 0.21152496 -0.097780704 0.025392383
-0.096792996 0.186364 -0.20187864 0.051693887 0.06606594 0.07626656 -0.020131469 0.21005076
-0.19334218 0.052921176 -0.12721291 -0.08432953 -0.09075238 -0.01140736 -0.087412566 -0.08129907
0.10761568 -0.13379955 -0.16124547 0.20013142 -0.010822758 0.01736106 -0.08284117 0.19276172
0.17586756 0.015939951 -0.13525859 -0.16043264 0.010878906 0.10885891 -0.102316685 0.15831384
0.044891506 -0.123286195 0.025091067 0.045282185 0.07078761 -0.12962022 -0.22012363 0.2183162
-0.11047214 -0.021148235 -0.12535655 0.12389061 -0.19919471 -0.177241 -0.21374884 0.13286439
-0.05632727 -0.05314243 0.048590004 0.15731421 0.030988544 0.04947862 -0.00902839 0.14177623
-0.20246127 0.06427243 -0.18925421 0.040557235 -0.10257032 0.1583966 -0.15855399 0.04530394

0.bias f4 [10]
00000000: 202c 71bd 8048 173c 3c34 a03d e529 1abe
00000010: 80de ec3a c0bc 13be b263 1e3e d017 023e
00000020: 6625 003e 9c35 26bd
-0.05887997 0.009233594 0.07822463 -0.15055044 0.0018071681 -0.14427471 0.15467718 0.12704396
0.12514266 -0.04057847

2.weight f4 [5, 10]
00000000: cd89 52be ed91 8d3e 2f07 933e 802a 943b
00000010: 4ec1 95be 0a2e a6bd 06b6 3e3e 6fa2 33be
00000020: c077 fbbb 98ed 633d 40f9 a8bd eb86 0dbe
00000030: 9e04 f4bd c0ce 7b3d 902e 8abc fc73 ffbd
00000040: 7025 fdbc d06f 133e e183 86be 0cd4 2d3e
00000050: 68c6 b13d d01b a23d 6489 213e 2c5a 14be
00000060: 04e6 debd 3d94 873e 74c3 e8bd 4690 4b3e
00000070: 4051 3cbc 7426 d43d f68a e8bd 80d3 a03c
00000080: 339a 37be a0a1 123d c002 de3b 591c 89be
00000090: 80e9 68bd 7e9a 7d3e 8044 053d 0875 2c3e
000000a0: b247 783e 205e 5a3d b8f8 dc3d c03f 6bbd
000000b0: c86d 053d 38e3 dcbd 9087 98bc 409d 7ebe
000000c0: 5f5d 8f3e c9ed 893e
-0.2056038 0.27650395 0.28716418 0.004521668 -0.29249042 -0.0811425 0.18624124 -0.17542432
-0.0076741874 0.05564651 -0.08250666 -0.13820998 -0.11914943 0.06147647 -0.016867906 -0.12473294
-0.03090164 0.14398122 -0.2627249 0.1697542 0.08680421 0.07915461 0.15775067 -0.14487523
-0.10883716 0.26480284 -0.11365405 0.19879255 -0.011493981 0.10358897 -0.1135463 0.019632101
-0.17929916 0.03579867 0.00677523 -0.2677944 -0.056863308 0.24765965 0.03253603 0.16841519
0.242461 0.05331242 0.10789627 -0.057433844 0.0325754 -0.10785526 -0.018619329 -0.24864674
0.28000924 0.26939228

2.bias f4 [5]
00000000: ca66 44be e4fc 0a3e 3c62 a9bd 4d94 8bbe
00000010: 3c08 063e
-0.19179836 0.13573033 -0.0827069 -0.27261582 0.13089079
