model-generator/model_rnn.onnx (onnx, 3720 bytes, 4 tensors)

i2h.weight f4 [20, 30]
0.12087691 -0.11581174 0.15839276 -0.07042241 -0.030743822 0.06395438 0.01868029 -0.17388394
-0.10582021 0.0006698668 -0.13009465 -0.16772896 0.11885691 -0.050128832 -0.17935283 -0.11998921
-0.031465977 -0.07989497 -0.18031672 0.15445384 -0.11475301 -0.054198116 -0.023749828 -0.045089006
0.05548641 -0.1573589 0.13421643 0.009136781 -0.05328715 0.16376346 0.016268954 -0.15171213
-0.11992396 0.08770764 0.037339956 -0.13337493 -0.17149164 0.1052334 -0.036147505 0.06668416
-0.16352001 0.18033597 -0.0049539804 -0.14859684 -0.12889554 0.0016884953 -0.08231714 0.11314848
0.16755348 0.17842138 -0.015828222 0.09210476 -0.13888448 -0.069113225 -0.045958847 0.06689486
-0.13494022 -0.09283814 0.06586152 0.014089093 0.062827215 0.10658553 0.027124316 -0.03780006
0.06549282 0.10299227 0.16507 0.012000382 -0.079726204 -0.041312203 -0.009606689 -0.09560935
-0.018569142 -0.16604227 0.17522803 -0.16778281 0.0871326 -0.0058767796 -0.163848 -0.15498784
-0.049383774 0.13051903 -0.039922938 -0.0037409365 -0.10420317 0.046564028 -0.15305065 -0.013823971
-0.027569145 -0.0890788 0.040909916 -0.044247568 0.107510656 -0.07301071 0.058426574 -0.029374883
0.059116364 -0.10412375 0.024746493 0.09787962 -0.0073652565 0.11084765 0.0878019 0.06256704
-0.10180711 0.12396389 0.18053144 -0.09896449 -0.011020124 0.01780431 -0.11045584 0.14361447
0.059209883 0.17628565 0.09568587 0.17383587 0.17287236 -0.09657416 0.036429897 -0.17511532
0.17340317 -0.05780936 -0.05623421 -0.10901736 -0.029904306 0.045659035 0.102377504 -0.17598367
-0.14532043 -0.07480903 0.061673656 0.017866865 -0.12576637 0.1372225 -0.1288221 -0.04931368
0.041616037 -0.06466858 0.14258078 0.124361575 0.080308706 0.08092517 0.0688732 0.027827427
0.12585655 -0.038973004 -0.012310237 -0.005362496 -0.13553971 0.11287823 -0.037213728 0.14463258
-0.1479426 -0.047066167 0.04045531 0.07839757 -0.037604928 -0.01846227 0.15805143 0.029936224
-0.1734243 -0.16673014 -0.12595893 -0.0270859 0.034769416 0.003891632 -0.18158782 0.023095697
-0.1287303 -0.11727343 -0.04574199 -0.10807532 0.021964014 0.17729437 -0.037877873 -0.03265205
0.023016855 -0.054840982 -0.18190943 -0.08489045 -0.15572453 0.16272014 0.08260077 -0.08638439
-0.09724209 -0.10414439 -0.13729236 0.029023513 -0.15826908 -0.08477257 0.04930781 -0.006370321
-0.009267628 0.17292345 -0.073481 0.0766508 -0.10933862 -0.09821487 -0.010300443 -0.056267947
-0.12948027 0.021863222 -0.17021155 -0.0059480816 0.06620988 -0.11887354 -0.17819196 -0.08282918
0.14746097 0.026812807 0.06413609 0.004932821 0.010251537 0.1216352 0.12986133 -0.08908051
0.112859875 -0.15321143 0.14492562 0.1327157 -0.070929155 0.018636882 0.10722539 -0.035103247
0.028626353 -0.16934586 0.006812632 -0.1675692 0.041237757 0.010374278 0.008270562 0.035302207
-0.0628951 -0.10931094 0.10810694 -0.14533985 -0.013734028 -0.10912481 0.16817889 -0.09494114
-0.06706274 0.09544653 -0.10989764 0.12158173 -0.03494817 0.15785855 -0.095790066 -0.05222991
0.07719025 -0.09968156 -0.11413921 -0.10120695 -0.10783848 0.0059679 0.1027365 -0.1465657
00000000: 508e f73d b52e edbd b631 223e a039 90bd
00000010: 78da fbbc 84fa 823d 6807 993c a20e 32be
00000020: 44b8 d8bd 009a 2f3a 8837 05be 24c1 2bbe
00000030: 406b f33d e453 4dbd 45a8 37be e7bc f5bd
00000040: 78e2 00bd f99f a3bd f2a4 38be 2629 1e3e
00000050: a003 ebbd d8fe 5dbd 008f c2bc 40af 38bd
00000060: b845 633d b122 21be 0870 093e 70b2 153c
00000070: a043 5abd 9cb1 273e 7846 853c 6d5a 1bbe
00000080: b19a f5bd 10a0 b33d c8f1 183d 7093 08be
00000090: 819b 2fbe 9c84 d73d 680f 14bd b491 883d
000000a0: ca71 27be fea9 383e 0055 a2bb c529 18be
000000b0: 31fd 03be 8050 dd3a e495 a8bd 64ba e73d
000000c0: 2493 2b3e 18b4 363e 30aa 81bc 6ca1 bc3d
000000d0: bc37 0ebe 3c8b 8dbd 583f 3cbd 2c00 893d
000000e0: c52d 0abe ec21 bebd 68e2 863d f0d5 663c
000000f0: 8eab 803d 8449 da3d d033 de3c 3cd4 1abd
00000100: 1a21 863d 9ced d23d 1c08 293e 409d 443c
00000110: 7e47 a3bd fc36 29bd 6065 1dbc d6ce c3bd
00000120: 501e 98bc fc06 2abe fa6e 333e 42cf 2bbe
00000130: 9472 b23d 0092 c0bb c5c7 27be 22b5 1ebe
00000140: a446 4abd c8a6 053e 3c86 23bd 802a 75bb
00000150: 7968 d5bd ecb9 3e3d 4fb9 1cbe f07d 62bc
00000160: b0d8 e1bc f26e b6bd 2891 273d f03c 35bd
00000170: 8c2e dc3d a486 95bd b450 6f3d 98a3 f0bc
00000180: 0024 723d d53e d5bd 28b9 ca3c 1c75 c83d
00000190: 4058 f1bb 1804 e33d 7cd1 b33d 2623 803d
000001a0: 3f80 d0bd c8e0 fd3d 3cdd 383e e5ad cabd
000001b0: c08d 34bc 58da 913c ac36 e2bd ac0f 133e
000001c0: 1086 723d 3a84 343e f4f6 c33d 0802 323e
000001d0: 7405 313e acc8 c5bd 8437 153d 6e51 33be
000001e0: 9a90 313e 82c9 6cbd d855 66bd 7e44 dfbd
000001f0: e0f9 f4bc f804 3b3d 4cab d13d 1035 34be
00000200: e1ce 14be 7a35 99bd 849d 7c3d 885d 923c
00000210: e6c8 00be 0e84 0c3e f1e9 03be 24fd 49bd
00000220: 9475 2a3d f670 84bd b200 123e 48b1 fe3d
00000230: e478 a43d 18bc a53d 640d 8d3d 58f6 e33c
00000240: 8ae0 003e 28a2 1fbd e0b0 49bc e0b7 afbb
00000250: ecca 0abe b42c e73d 6c6d 18bd 901a 143e
00000260: 447e 17be 74c8 40bd 78b4 253d e88e a03d
00000270: a007 1abd 303e 97bc 3cd8 213e d03c f53c
00000280: 2496 31be 4ebb 2abe 61fb 00be 40e3 ddbc
00000290: 606a 0e3d c00a 7f3b 28f2 39be 3033 bd3c
000002a0: e0d1 03be 0d2d f0bd f45b 3bbd 9856 ddbd
000002b0: e0ed b33c a88c 353e d425 1bbd 28be 05bd
000002c0: d88d bc3c f0a0 60bd 7746 3abe 0bdb adbd
000002d0: 4076 1fbe 1ca0 263e 982a a93d 4dea b0bd
000002e0: dc26 c7bd a749 d5bd 5e96 0cbe b8c2 ed3c
000002f0: 4a11 22be 3e9d adbd fcf6 493d 20be d0bb
00000300: 40d7 17bc d812 313e 357d 96bd 18fb 9c3d
00000310: edec dfbd e124 c9bd 30c3 28bc 3879 66bd
00000320: 7a96 04be 801a b33c f04b 2ebe 20e8 c2bb
00000330: 0c99 873d f873 f3bd f477 36be 58a2 a9bd
00000340: 0200 173e 88a6 db3c c859 833d 80a3 a13b
00000350: 10f6 273c e01b f93d 5efa 043e d86f b6bd
00000360: 1423 e73d 75e3 1cbe 6267 143e a0e6 073e
00000370: 4e43 91bd 60ac 983c fc98 db3d 6cc8 0fbd
00000380: d081 ea3c 0069 2dbe 803c df3b 4397 2bbe
00000390: ece8 283d e0f8 293c 4081 073c 0c99 103d
000003a0: 25cf 80bd 6ade dfbd 2c67 dd3d f8d3 14be
000003b0: b004 61bc d47c dfbd 1637 2c3e 8070 c2bd
000003c0: 3158 89bd 7879 c33d 0412 e1bd d8ff f83d
000003d0: d025 0fbd aca5 213e 952d c4bd 08ef 55bd
000003e0: ec15 9e3d d925 ccbd d1c1 e9bd 9745 cfbd
000003f0: 6cda dcbd 608e c33b 8467 d23d 5215 16be

i2h.bias f4 [20]
-0.020015955 -0.10989181 0.003464073 -0.0011425912 0.16093916 0.17555687 -0.021779492 -0.013012499
-0.003073737 -0.13126972 0.11516547 0.17135414 -0.14498256 0.00371778 0.034542367 0.12186092
-0.10187872 -0.12471331 0.07638043 0.106378496
00000000: 80f8 a3bc f50e e1bd 8005 633b 00c3 95ba
00000010: 3ccd 243e 2ec5 333e e86a b2bc 6032 55bc
00000020: c070 49bb 926b 06be e0db eb3d 7677 2f3e
00000030: 4f76 14be 00a6 733b 4c7c 0d3d 3892 f93d
00000040: caa5 d0bd b169 ffbd 586d 9c3d f8dc d93d

i2o.weight f4 [5, 30]
0.04700719 -0.055695057 0.083730996 0.037334934 0.08793166 -0.0891738 0.11639711 0.038604125
-0.016801551 -0.06671791 -0.14774583 0.116143525 -0.08891826 -0.08029034 0.121811956 0.025365502
-0.052686334 0.13493374 0.13536954 0.13122565 0.0064554214 0.17987919 0.0048089474 0.11255482
0.06377138 -0.16635135 -0.15422936 0.009830475 -0.003529489 0.037645444 0.09426832 -0.06845309
0.058612034 -0.07171322 -0.06981087 -0.15881804 0.099951744 -0.17324133 0.029320449 0.018358797
-0.035737053 0.18090728 -0.1404576 0.020841181 -0.04844974 -0.10797375 0.08666527 -0.15714793
-0.17102966 -0.15914366 -0.06260265 -0.06537891 -0.12297685 0.14589033 -0.053843424 0.09090778
-0.13614766 0.07214615 0.10665089 0.008876711 -0.002461642 -0.12213295 -0.107229315 0.09766841
0.16743436 -0.13318026 0.08286163 0.1454882 0.035230666 -0.015893623 -0.15069386 -0.110933155
-0.08229586 -0.098991826 -0.0970444 -0.049085736 -0.14944135 0.1070337 0.015658587 -0.042538136
0.14466414 0.12107387 0.0737021 -0.14259592 0.030955464 0.06071098 0.03401625 0.15458229
0.14219943 0.1293228 0.06629495 -0.17565385 0.053935602 -0.006650716 -0.13594335 0.010266677
0.09411669 0.021519795 0.01827903 0.12088111 0.014272004 0.031501755 0.08763352 0.07543823
-0.023089603 -0.017065361 0.13995203 -0.0768747 -0.15107197 -0.026499823 0.07564467 -0.07587403
-0.14870216 0.15035883 -0.10222787 0.15640011 -0.09122781 0.1028741 -0.0125117 0.12479767
0.16975754 -0.13131075 0.17368072 -0.09177762 0.09307176 0.013522968 -0.102537185 -0.12769124
0.014082074 -0.014239013 -0.098631926 -0.112265535 -0.0075621605 0.02399616 0.1349496 -0.022075027
0.1574701 -0.0489987 -0.10467847 0.11341444 0.18056703 -0.08103155 0.13631752 -0.09144454
-0.15724441 -0.13471696 -0.15331356 0.05270019 -0.06742321 0.15102106
00000000: 9c8a 403d 8020 64bd 287b ab3d 84ec 183d
00000010: 8415 b43d c1a0 b6bd 9c61 ee3d 5c1f 1e3d
00000020: 68a3 89bc 66a3 88bd af4a 17be a8dc ed3d
00000030: c71a b6bd 436f a4bd 8c78 f93d 50cb cf3c
00000040: a0cd 57bd 122c 0a3e 509e 0a3e 0460 063e
00000050: 0088 d33b 4032 383e 6094 9d3b 2483 e63d
00000060: 929a 823d 0258 2abe 4dee 1dbe 0010 213c
00000070: 004f 67bb 1c32 1a3d c00f c13d 2231 8cbd
00000080: 2c13 703d 61de 92bd 00f9 8ebd 32a1 22be
00000090: 80b3 cc3d 2d66 31be 7031 f03c 3065 963c
000000a0: 0461 12bd c23f 393e 1ed4 0fbe 20bb aa3c
000000b0: 3c73 46bd 5721 ddbd 907d b13d 63eb 20be
000000c0: 6622 2fbe 8ef6 22be d135 80bd 61e5 85bd
000000d0: 49db fbbd 4664 153e ec8a 5cbd dc2d ba3d
000000e0: 4b6a 0bbe 5cc1 933d c86b da3d a06f 113c
000000f0: 8053 21bb d720 fabd 0b9b dbbd 6006 c83d
00000100: ea73 2b3e 6860 08be 5cb3 a93d dcfa 143e
00000110: 084e 103d 5833 82bc 7e4f 1abe ec30 e3bd
00000120: bb8a a8bd 3abc cabd 37bf c6bd 200e 49bd
00000130: 2707 19be 7c34 db3d 7046 803c 783c 2ebd
00000140: d622 143e 94f5 f73d 20f1 963d aa04 12be
00000150: 5096 fd3c 14ac 783d a054 0b3d d24a 1e3e
00000160: ba9c 113e 326d 043e a6c5 873d 9ade 33be
00000170: 94eb 5c3d 40ee d9bb bc34 0bbe 9035 283c
00000180: 40c0 c03d 484a b03c e8bd 953c 8490 f73d
00000190: 20d5 693c fc07 013d 3479 b33d 5c7f 9a3d
000001a0: 6826 bdbc a8cc 8bbc 964f 0f3e 7c70 9dbd
000001b0: 9cb2 1abe 2816 d9bc 98eb 9a3d d863 9bbd
000001c0: 6145 18be aaf7 193e d85c d1bd 5a27 203e
000001d0: a5d5 babd a8af d23d e0fd 4cbc ec95 ff3d
000001e0: ecd4 2d3e 5376 06be 5cd9 313e e8f5 bbbd
000001f0: 689c be3d 708f 5d3c 04ff d1bd 7ec1 02be
00000200: 80b8 663c c04a 69bc 89ff c9bd 79eb e5bd
00000210: 00cc f7bb 9893 c43c 3a30 0a3e b0d6 b4bc
00000220: d83f 213e dcb2 48bd aa61 d6bd d445 e83d
00000230: 90e6 383e dff3 a5bd d296 0b3e 4647 bbbd
00000240: ae04 21be 3ef3 09be 3bfe 1cbe 28dc 573d
00000250: 2e15 8abd 44a5 1a3e

i2o.bias f4 [5]
0.020896241 0.06281409 0.11034399 -0.17536488 0.10714111
00000000: 982e ab3c aca4 803d 08fc e13d da92 33be
00000010: cc6c db3d
