model-generator/model_cnn.onnx (onnx, 249761 bytes, 10 tensors)

conv1.weight f4 [6, 3, 5, 5]
00000000: 76c6 9fbd e3ab e5bd be48 e9bd 6a95 cd3d
00000010: 3009 cf3b de19 cc3d 5c45 263d cc67 c3bd
00000020: 202d 8ebd ed16 b4bd 8c5a 913d 18e6 2abc
00000030: 7602 9c3d 1099 903d a22a b73d 2cd7 17bd
00000040: 9685 0cbd 9c2a ad3d 6824 e6bc a806 9f3c
00000050: 501d e53c a0aa 32bb 6ff6 77bd 8eea 9d3d
00000060: f40f 5b3d 24dd d6bd 9675 a7bd e023 f43c
00000070: f7e2 e2bd 5e48 90bd a803 ba3c a650 d73d
00000080: 48a7 b3bc 93d0 e3bd 186f 063c 4caf 21bd
00000090: 8019 1d3d f089 d8bc 16b4 44bd 5d85 b8bd
000000a0: 2868 a63d e5a6 b5bd d2ee 61bd 24d2 10bd
000000b0: debb e03d ac0d 9d3d 804b de3c b2d4 e73d
000000c0: e6e6 e53d 3c80 783d c0e8 cabb 0086 9439
000000d0: 0204 9dbd 6a3b c23d 6625 1abd 8b00 ecbd
000000e0: b064 73bc 0c06 2c3d b1ea 9bbd 45f6 b1bd
000000f0: 2c54 b7bc 451f cabd 301d 46bd 6e35 35bd
00000100: b814 c53c 0004 d5bd 04d3 e6bc fcf9 91bd
00000110: 308f 693c a745 7bbd 206c eb3c 79f1 d8bd
00000120: 90bd b2bb a6af 1abd f85a 7d3d 0e52 843d
00000130: dda8 bcbd dc93 493d 4c00 90bd 805d e93d
00000140: 66bc 833d 081d 5fbc ac9d 52bd 10b7 bcbd
00000150: e582 e9bd 00ba 26b9 8ee0 b53d 90c7 e4bb
00000160: 44d9 e73d 2052 99bc 3055 06bc 707e 9a3d
00000170: 8cda 1e3d f939 84bd d8a3 5dbc d424 f0bc
00000180: c8b2 a9bc 0698 803d 8624 a73d 7289 a53d
00000190: d6e3 43bd f2e4 d33d 68c6 c63c b09b 59bd
000001a0: f7e1 dcbd 863b 3abd d093 a53c 58af 90bd
000001b0: fb8f c1bd 2c44 babc 7216 ddbd bc99 203d
000001c0: d0cf 3b3c 8caf 023d 7cd7 003d 2448 003d
000001d0: a833 38bc a8b3 763d 1ee7 d83d 1897 633d
000001e0: ac3b 4e3d fe59 afbd 80eb b9bd 903c e2bb
000001f0: 086f bebd 5041 a93d 6055 623c 0a2f 93bd
00000200: be3e 84bd 8a05 5dbd a47d e0bd eca5 c73d
00000210: bc8f 533d a4c4 2fbd 6cda 93bd f8f8 d83c
00000220: 6e22 bb3d f0db ec3c 590e eabd 69f4 83bd
00000230: 9a97 4fbd 78af f7bc 0267 ab3d 7553 e3bd
00000240: e04f 603c 18bc 273d bc8a 753d ae37 acbd
00000250: 90f8 743c 329b b8bd 409c ef3c b820 cc3d
00000260: e463 cdbc 004a 323d ce0c 48bd 3064 613d
00000270: eeb3 cfbd 28ab e53d 2c4b 94bc f9f5 e8bd
00000280: 4cc8 4dbd a8de 9e3c 62b0 b63d e005 633c
00000290: 38ad 3e3d 8a6f 58bd e6be 53bd 2038 afbd
000002a0: 94e0 e43d 7cb1 2a3d ea82 d93d 282b 57bd
000002b0: 7765 6cbd f2a8 9d3d 30f8 a63d 0467 be3d
000002c0: d8cd d6bc a2ae db3d 8c0e a93d 4e66 afbd
000002d0: b4c2 e0bc f0f4 95bd ed7d 59bd a986 6cbd
000002e0: 5060 893d dab2 c7bd eee3 a33d 7ce7 483d
000002f0: 76f0 9e3d b42f 8e3d 9c9e cf3d acc7 8bbc
00000300: fe16 cc3d 505a 83bd 1697 893d c267 ce3d
00000310: cc85 cbbc 90af 913d 0063 b739 e6ed 1bbd
00000320: 16e4 833d a557 c1bd 005c edbc 6c6c bcbd
00000330: a7ae 78bd 6c83 b6bc 6f60 ddbd 6ce2 4dbd
00000340: ac1c 973d 9a6a b53d 0fa0 81bd aefd 9e3d
00000350: bc66 97bd cca0 d2bc d769 c1bd b642 a03d
00000360: 0017 4cba 2069 d3bc 8883 113d e0f6 1c3b
00000370: 5c9d a9bc 7c83 1e3d 5026 243c 78ef d2bd
00000380: 3877 423d f63e b83d 5403 35bd 6078 a93c
00000390: 90a0 92bd 001a 18bd c28d db3d 04e9 c9bd
000003a0: 706a 963d 2456 b33d 9876 293d 9b7b aebd
000003b0: dd97 aabd 1efb 33bd a07e 83bb c00e 84bc
000003c0: c43d d93d 402a 213d 9a21 b8bd b423 d9bd
000003d0: 52e9 5cbd 2826 003d 8463 18bd 0887 00bd
000003e0: 3e35 1dbd 10b0 323c 52df c63d 50d9 f0bb
000003f0: bef2 30bd 8850 783d f0bb 3e3d f471 b9bc
-0.07801525 -0.112144254 -0.113908276 0.10038264 0.006318234 0.09965871 0.04059349 -0.09541282
-0.06942201 -0.08793435 0.070973486 -0.010430835 0.07617657 0.07060444 0.089436784 -0.03707044
-0.034307085 0.08455393 -0.028093532 0.019412354 0.027968079 -0.0027262345 -0.06053775 0.077107534
0.05348201 -0.10491398 -0.081767246 0.029802263 -0.11078446 -0.07045053 0.022706822 0.10513429
-0.021930352 -0.11123767 0.008205198 -0.039473817 0.038354397 -0.026432961 -0.048023306 -0.09009812
0.08125335 -0.08869723 -0.055159397 -0.035356656 0.10973333 0.07668623 0.02713561 0.11319865
0.11225681 0.06066917 -0.0061922967 0.00028328598 -0.0766678 0.094839886 -0.037633322 -0.11523541
-0.014855549 0.041997954 -0.07613123 -0.0868955 -0.022379003 -0.098692454 -0.04836768 -0.044240408
0.024057731 -0.104011536 -0.028176792 -0.07127759 0.01425533 -0.061345723 0.028738081 -0.10592932
-0.0054547265 -0.037765168 0.061854333 0.06460963 -0.092118956 0.049213275 -0.070313066 0.11394787
0.064324185 -0.013617761 -0.0514199 -0.09214604 -0.11401919 -0.00015900284 0.08880721 -0.0069817975
0.11320737 -0.018715918 -0.008199021 0.07543647 0.03878264 -0.0645637 -0.013527833 -0.029314436
-0.020715132 0.06278996 0.08161263 0.08082856 -0.047824703 0.10346402 0.02426453 -0.05312699
-0.10785287 -0.045466922 0.020212084 -0.07064694 -0.0945129 -0.022737585 -0.10795297 0.039209113
0.011463121 0.031905696 0.031455502 0.0313188 -0.011242785 0.060229927 0.10590957 0.055564016
0.050349876 -0.085620865 -0.09078121 -0.0069041923 -0.09298521 0.082644105 0.0138143 -0.07186706
-0.064572796 -0.05396036 -0.10961464 0.09748444 0.051650748 -0.04291214 -0.07219395 0.026485905
0.09137426 0.028913468 -0.11428518 -0.06443102 -0.050681688 -0.030235037 0.083692566 -0.110999025
0.013690919 0.040950865 0.05994676 -0.084090576 0.01495184 -0.09013976 0.02924931 0.09967178
-0.025072046 0.043527603 -0.048840337 0.055027187 -0.10141741 0.11214286 -0.018102251 -0.113750406
-0.050239846 0.01939328 0.08920361 0.013856381 0.046551913 -0.052840747 -0.051695727 -0.08555627
0.111756474 0.04167317 0.10620673 -0.05253139 -0.057713952 0.076982394 0.08152807 0.092969924
-0.0262212 0.10726668 0.08254728 -0.08564435 -0.027436592 -0.07322109 -0.053098608 -0.05774561
0.06707823 -0.0975091 0.080024585 0.049048886 0.07760708 0.069426924 0.10137674 -0.017062984
0.09965323 -0.0641371 0.067182705 0.10078384 -0.024844073 0.07113564 0.0003497824 -0.038068675
0.06439988 -0.09440545 -0.028974533 -0.09200367 -0.060713436 -0.022279464 -0.10809409 -0.05026476
0.073785156 0.08858223 -0.06329357 0.07763229 -0.07392642 -0.02571144 -0.094440155 0.07825224
-0.00077854097 -0.025806963 0.03552583 0.002395086 -0.020704918 0.038699612 0.0100189 -0.10299581
0.047476977 0.08996384 -0.044192627 0.020687282 -0.07159531 -0.03713417 0.107203975 -0.09858897
0.0734452 0.087566644 0.041372865 -0.085196696 -0.08329747 -0.043940656 -0.0040128976 -0.016120315
0.10607484 0.039346933 -0.08990784 -0.10602513 -0.05393345 0.03128639 -0.03720428 -0.031378776
-0.038380854 0.010906234 0.09710564 -0.0073501244 -0.043200247 0.060623676 0.04656595 -0.022637345

conv1.bias f4 [6]
00000000: 46cf 8cbd 5cb4 9abd 3426 8abd 328a 9b3d
00000010: 3adb a43d ce24 e93d
-0.06875472 -0.07553932 -0.06745568 0.07594718 0.08049627 0.11383973

conv2.weight f4 [16, 6, 5, 5]
00000000: a4cf 2f3d 3aa0 1abd b451 843c 9e95 c5bc
00000010: 9660 883d 9c4f f73c 3099 2d3c 38d7 643d
00000020: f05c ff3b 9783 09bd 788a 063c 9e30 41bd
00000030: bd40 35bd 5692 f0bc 04ac a33d 4877 843c
00000040: 3439 bebc c6f9 a4bd a069 663d c041 5cbb
00000050: 2031 993d b882 893c b401 263d d0b0 9e3d
00000060: e05d c43c 1ccc 8ebd 8c89 533d c046 033c
00000070: 1026 31bc 787b 53bc 3a8c dcbc 9d02 89bd
00000080: 80f1 d9bb 0006 b53a ec0a 8f3d 90fb 643d
00000090: b4e8 5e3d 04d5 e53c 800c 3f3c 5495 423d
000000a0: 8231 eabc 0b99 97bd 0c9f 5abd a8ac 363d
000000b0: 702c 9e3b 28f9 debc 66f3 8b3d 04d2 9cbd
000000c0: 120c a5bc 00ac a23a 4023 d53c 4c97 a8bc
000000d0: 8f1f 95bd e025 d23c 6c39 6c3d d9ae 37bd
000000e0: 84c5 22bd 00d1 8a3d fce1 4fbd e0e2 993d
000000f0: fc7d 3ebd dc22 463d 044a 6d3d 7434 f9bc
00000100: 6cbc 4abd e8f7 dc3c a470 b53c 5eca f8bc
00000110: 488f 4f3c 8855 a13d c2b8 a63d 94ca 4ebd
00000120: 9ccd 8ebc 975e 8dbd b8b5 9f3d c004 dabc
00000130: a864 2f3c dcc6 b33c 374c 37bd dc0d 413d
00000140: 5293 babc 0646 11bd c033 663c 7c3d 21bd
00000150: 4845 803d a2ff 853d c8ac 733d ace4 8abd
00000160: e75b 22bd e087 563c 1190 26bd 30ad dbbc
00000170: 942a 65bd d84b 353d c8c2 71bd 92b3 afbc
00000180: cc68 613d 9ce3 5b3d 9086 a73b f886 00bc
00000190: 51ca 91bd f4de 86bc c60a dcbc 8c5d 9d3d
000001a0: e042 863c c47f 1cbd 00c5 3b3c 405a 63bc
000001b0: 641c 893c caef 913d 7818 283c 204f d83c
000001c0: cf81 8cbd 8024 653c 34ee 763d fc7f 8e3d
000001d0: e21c 65bd f433 eb3c 40b2 ac3a b8a6 4d3d
000001e0: aeb1 9e3d 60cb b9bc a86d 673d e29b 1c3d
000001f0: 9ec2 cbbc 2c8d a33d 9cd5 fbbc bafd 28bd
00000200: 160e 70bd a8ea e93c bce2 2b3d 8a35 4bbd
00000210: a803 40bd b68c 39bd f221 a73d 4e04 d7bc
00000220: d811 a33c e8df 763c e091 1d3b f26d afbc
00000230: 3cfb 983c c398 8ebd e8f8 a13d 58a2 11bc
00000240: 20ec 66bc 4848 59bd 9489 6d3d 9506 1bbd
00000250: 1059 7c3d 957c 2bbd 1e48 f0bc a041 0bbc
00000260: e8b8 2dbc 1ca7 1cbd 4dde 96bd b052 b13b
00000270: bea3 a4bd 4106 00bd 0c78 9dbd 7603 093d
00000280: 0e0b 94bd ec5d 683d 43fb 8abd 76cd 9e3d
00000290: 06af 1d3d e051 543d a4ef 5b3d 24a4 91bd
000002a0: 1a7a 9bbd 7e6c 8f3d a05f 943d 6839 76bd
000002b0: a5b9 86bd 56bd 803d 0a9c 183d 20f9 32bd
000002c0: 621e 28bd da49 8c3d 0afd 033d 00d3 d3b9
000002d0: f400 88bd 809e e53b 4a0d 4bbd 280e 18bc
000002e0: 6456 a83c 10d9 a43b 4c05 e83c 1e99 973d
000002f0: 2431 50bd dc93 8ebd eec3 a0bd c1d4 15bd
00000300: cd5a 8cbd 6584 36bd a4fd a6bd e8fa 38bd
00000310: 74f1 633d a86f 643d fa5a 72bd e8b4 713d
00000320: 5141 38bd c65d a3bc 8448 c43c 40c2 243b
00000330: ac6c 41bd a088 483c 7c47 4e3d 30c4 3bbc
00000340: 34a5 acbc 902b 6e3c 8600 143d 9d28 36bd
00000350: 885c b33c 506d b43c ca04 2a3d 80ff 513d
00000360: 4019 a03a ccf7 8abc 3716 30bd 240f 843d
00000370: 7607 913d d47b 8c3d 0ecc 8d3d 706d 0e3c
00000380: 0459 663d 98fd 763d 681c 643c 1392 56bd
00000390: e0cc 0b3b 1227 75bd bef9 2b3d c08b a5bd
000003a0: 048a 633d d08b 5abc 14b2 c53c f0f4 90bb
000003b0: 42f6 103d 4465 f53c ca06 a2bd 5075 4e3d
000003c0: e814 11bc 702c 953b 924f 0e3d f6c7 293d
000003d0: 70e6 46bc f05c 99bb fc37 7c3d 2c4a 423d
000003e0: f701 2abd cc25 1cbd e05b 1bbb c0b4 8c3b
000003f0: 50b1 79bc 7e02 5dbd b9a7 91bd 008e 7639
0.04292263 -0.03775046 0.01615224 -0.024119195 0.06659047 0.030189328 0.010595605 0.05586931
0.0077930614 -0.03357276 0.008211724 -0.047165506 -0.044251192 -0.029366653 0.07991794 0.016170159
-0.023220636 -0.08055453 0.056253076 -0.0033608526 0.07480073 0.016785964 0.040528968 0.07748568
0.023970544 -0.069725245 0.051644847 0.008012474 -0.010812297 -0.012907855 -0.026922334 -0.066899516
-0.0066511035 0.0013810992 0.06984505 0.05590397 0.05442114 0.028055675 0.011660695 0.04750569
-0.02858806 -0.074022375 -0.053374335 0.04459825 0.0048270747 -0.027218416 0.06833534 -0.07657245
-0.020147357 0.0012410879 0.026017785 -0.020579956 -0.0728141 0.025652826 0.05767195 -0.044844482
-0.039739147 0.06778145 -0.050752625 0.07513976 -0.046506867 0.04837309 0.057931915 -0.03042052
-0.0494961 0.02697368 0.022148438 -0.030369934 0.012668438 0.07877642 0.081407085 -0.050486162
-0.017432027 -0.06902807 0.07798332 -0.026613593 0.010705151 0.02194541 -0.04475042 0.047132358
-0.022775326 -0.03546717 0.014050424 -0.039365277 0.06263214 0.06542899 0.05949095 -0.06781897
-0.039638426 0.013093919 -0.040664736 -0.02681598 -0.05594881 0.044261783 -0.05902365 -0.02144793
0.055031583 0.053683862 0.0051124766 -0.007844679 -0.07118667 -0.016463734 -0.026860606 0.07683858
0.01638931 -0.038207784 0.011460543 -0.013876498 0.01673717 0.07125814 0.01025974 0.026404917
-0.068606965 0.013985753 0.060285762 0.06958005 -0.055935748 0.028711297 0.0013175681 0.050207824
0.077487335 -0.022679985 0.05650106 0.0382346 -0.024873074 0.07985911 -0.030741505 -0.041257598
-0.058607183 0.028554276 0.041964278 -0.049611606 -0.046878487 -0.045300208 0.081607714 -0.02624717
0.01990597 0.015068032 0.0024043247 -0.02141473 0.018674485 -0.06962731 0.07908803 -0.008888803
-0.0140943825 -0.05304745 0.057992533 -0.037848074 0.061608374 -0.041866858 -0.029331263 -0.008499533
-0.010603167 -0.038245305 -0.07366619 0.0054114684 -0.08039044 -0.031255964 -0.07688913 0.033450566
-0.07228671 0.056730196 -0.067862056 0.07754032 0.038496993 0.051835895 0.053695336 -0.071113855
-0.075916484 0.07003115 0.072448015 -0.06011334 -0.06578378 0.06286113 0.037258185 -0.043694615
-0.0410446 0.068500236 0.03222374 -0.00040402263 -0.06640807 0.00700742 -0.04957322 -0.009280719
0.020549007 0.0050307587 0.028322838 0.07402252 -0.050828114 -0.06961796 -0.078498706 -0.03657985
-0.068532564 -0.044559855 -0.08153847 -0.045161158 0.05565019 0.055770546 -0.059168793 0.059010416
-0.044984166 -0.019942176 0.02396036 0.0025140196 -0.04722278 0.012239605 0.05036114 -0.011460349
-0.021074869 0.014536753 0.03613331 -0.044472326 0.021894708 0.02202478 0.041508473 0.051269054
0.0012214556 -0.016963862 -0.042989936 0.064482 0.07081501 0.06859556 0.06923686 0.008693084
0.056237236 0.06030044 0.013922788 -0.0523854 0.0021331832 -0.059851713 0.04198622 -0.08083296
0.055551544 -0.013338998 0.024132766 -0.00442373 0.0353911 0.029955514 -0.07911451 0.050404847
-0.008855082 0.0045524165 0.034743853 0.041450463 -0.0121399015 -0.0046802685 0.06157683 0.047434017
-0.04150578 -0.038121983 -0.0023705885 0.004294008 -0.0152400285 -0.053957455 -0.07112069 0.00023513287

conv2.bias f4 [16]
00000000: 58e0 51bd 78d9 503d 2832 68bd 7425 10bd
00000010: 0866 5dbd 8a9a 193d 941d 583d 803d 003b
00000020: e0cf 22bd b40a 7e3d d488 b43c 36fd 8bbd
00000030: 46de 0f3d 7ad4 49bd 00fc ea39 1830 2d3d
-0.05123934 0.050988644 -0.056688458 -0.035191968 -0.054052383 0.037500896 0.052762583 0.0019567907
-0.039749026 0.062021926 0.022037901 -0.068354055 0.035124086 -0.0492749 0.00044819713 0.042282194

fc1.weight f4 [120, 400]
00000000: 36d4 953c 6e4e f53c 60cb 3ebc ad14 25bd
00000010: 533b 36bd 2c78 17bc a482 533c 6970 2a3d
00000020: 0b8a 073d 0fc4 2f3d 1d70 dcbc e326 023d
00000030: 1e6a 873c 384a 373c c7d0 34bd 2513 19bd
00000040: de0c e43c 9a80 9ebc 2036 4a3c db56 0f3d
00000050: e4f6 673c 9de5 1fbd 3af7 dd3c 7294 e23c
00000060: 0238 15bd 616c 083d 9226 e33c 13b6 283d
00000070: 781f 453c 2dda 463d 1a89 ba3c 1403 4b3c
00000080: 3334 9bbc 929a 31bd 08d7 62bc 40e8 eabc
00000090: 0297 25bd 84ec 7c3c c054 573a 80a9 8f3b
000000a0: 7e81 893c d288 2bbd 53dd 3d3d c1c1 1d3d
000000b0: 7ff5 3dbd f51a 4a3d 4a4f debc 6c4c 31bc
000000c0: ce51 eb3c 6083 ecba ec52 343c ad2e 1dbd
000000d0: 0875 0fbd a873 96bb 42cd c53c 6069 34bb
000000e0: 3077 d93b 88fc 0d3c 4c2b 153c 6922 253d
000000f0: bbe5 113d a68f 8dbc 4b16 3dbd 003c bbba
00000100: e8ee 73bc 5713 403d ad29 16bd e241 05bd
00000110: 604c f63a 3763 403d c040 4b3c 2fea 2cbd
00000120: 3788 49bd 631e 1d3d 524d a73c db13 0f3d
00000130: 066c c63c ebf2 21bd 66fb 2bbd e9ca 2f3d
00000140: e528 35bd b896 47bd de89 e03c f1a1 443d
00000150: c29e e73c a21e 983c 789b 1cbc 8325 14bd
00000160: f909 313d 5b97 383d d5ee 353d a613 de3c
00000170: ac76 363c 3cb7 85bc 10e4 e4bc a2fc cc3c
00000180: 00bb 0cbd 6ab7 e43c c7f4 203d 40ec 06bd
00000190: 7281 863c 4793 c3bc d7e2 a7bc a033 72bb
000001a0: fe70 aa3c 1457 203c 8fea 283d 5ffc 473d
000001b0: 0066 edba 5c0c 00bd 12d7 c33c 6783 c8bc
000001c0: e44a 06bd e2dd c23c 54f4 02bd d40b 0cbd
000001d0: 4b2d 12bd 538c f5bc a8a6 fabb d255 e93c
000001e0: 82af a13c b04c a7bc fe86 13bd 32c3 963c
000001f0: 7e47 b53c 306c 95bb ccf6 083c 4eef b93c
00000200: b583 35bd ba69 e5bc e00f 1fbc f155 143d
00000210: db80 433d 6887 46bd d485 1c3c 3d83 dabc
00000220: 0abf f73c eb99 11bd 4ae1 b53c 088e 05bd
00000230: 73e7 1abd 94df 62bc f318 debc 2ca8 0d3c
00000240: 2873 a63b 26b9 95bc d342 043d c8e7 1bbc
00000250: 5174 343d 009a 6db9 6c6f 6ebc 18d6 8abb
00000260: f435 98bc 6900 353d 80bb a3bc 801a a4b9
00000270: 3af2 b93c 637d efbc 31fb 4b3d 2ab8 8fbc
00000280: e463 723c 004d f93b 3103 473d 8c96 0bbd
00000290: 8ab1 eabc e242 e93c d5b6 34bd 0d38 1cbd
000002a0: cc90 15bc ea59 cfbc efee 233d 3a3b 4bbd
000002b0: 16c5 8fbc c0bd a1bb ceb6 0fbd b928 303d
000002c0: be37 25bd c81f 3a3c 688d 28bd c905 053d
000002d0: 7acb 97bc 52b7 e03c 3832 4bbd 1905 393d
000002e0: a027 e73a b1be 3b3d b46a 53bc 612c 183d
000002f0: f956 263d 4558 2f3d 5340 f5bc fab0 8bbc
00000300: 3464 0d3c 807e cf3b 05b5 2bbd a76b 143d
00000310: a0b9 e13a 08d3 053c a01d 013b cac5 9f3c
00000320: d09f 763b b063 b6bb 00d7 f0bc 0ecc 04bd
00000330: a23d a03c 5038 ec3b 6fdd 1a3d d0c2 b4bb
00000340: 410b 313d 37c1 dfbc 8812 453c 93e1 4bbd
00000350: 33f1 2ebd 1a63 08bd c158 243d 99f2 373d
00000360: c783 46bd 82cc cb3c 72d5 ce3c fd83 bebc
00000370: 5fc5 1d3d 8ad3 bf3c ddb1 b2bc fa73 f1bc
00000380: 0a39 ee3c 4610 06bd 582f b83b acfc 09bd
00000390: 6062 2fbb b6e8 d43c 05df 09bd d320 dbbc
000003a0: 4282 e33c 69f8 483d a881 70bc a28b b73c
000003b0: cfbe 1f3d 9241 c83c aa70 cabc 2c64 1dbc
000003c0: 23b6 d6bc d68f 85bc 7c85 6c3c b4ab 06bd
000003d0: d00f 50bb 3449 75bc 5e04 e43c b107 233d
000003e0: 1a0a bc3c 93d7 cfbc 60d0 f2ba 57b9 333d
000003f0: db04 36bd f4ef 133c 1727 abbc 0090 56bb
0.018289667 0.029944625 -0.011645168 -0.04030292 -0.04449017 -0.00924496 0.012909565 0.04161111
0.033090632 0.042911585 -0.026908929 0.031775367 0.016530093 0.011187129 -0.044144418 -0.037371773
0.027838167 -0.019348431 0.012342006 0.03499494 0.014157984 -0.039037336 0.027095426 0.027658675
-0.036430366 0.033306483 0.027728353 0.041189265 0.0120314285 0.048547912 0.022770453 0.012390871
-0.018945789 -0.0433603 -0.013845213 -0.028675199 -0.040427215 0.015437249 0.0008214228 0.0043842196
0.01678538 -0.04187853 0.04635365 0.038514856 -0.0463767 0.049342114 -0.027137417 -0.010821443
0.028725531 -0.0018044524 0.011006098 -0.03837459 -0.03502372 -0.004591424 0.024145726 -0.0027528629
0.0066365227 0.008666165 0.009104561 0.04031602 0.03561948 -0.017280411 -0.04616384 -0.0014284849
-0.014888503 0.046893444 -0.03666084 -0.032533534 0.0018791072 0.04696962 0.012405574 -0.042215522
-0.04920217 0.038359057 0.020422611 0.034931045 0.024221431 -0.039538305 -0.0419878 0.04291812
-0.044228453 -0.04872772 0.02740949 0.048006 0.028273944 0.018569294 -0.009558551 -0.036168586
0.0432224 0.04506622 0.04441722 0.027108978 0.011136692 -0.016322725 -0.02794078 0.025022808
-0.034358025 0.02791949 0.039295938 -0.03294015 0.016419146 -0.023873938 -0.020493908 -0.003695704
0.020805832 0.009786386 0.041239318 0.048824664 -0.0018112063 -0.031261787 0.023906264 -0.02447672
-0.032786265 0.023787443 -0.03197129 -0.034190968 -0.035687726 -0.029974138 -0.0076492615 0.028483305
0.019737009 -0.02042231 -0.03601741 0.018403623 0.022128817 -0.004560016 0.008359622 0.022697117
-0.04431506 -0.028004516 -0.009708375 0.036214773 0.047730308 -0.048468977 0.0095533915 -0.026673907
0.030242462 -0.03554718 0.022202153 -0.032606155 -0.037818383 -0.0138472505 -0.027111506 0.008646052
0.0050796457 -0.018276762 0.03229029 -0.00951571 0.04405624 -0.00022659451 -0.014552932 -0.0042369477
-0.018580414 0.044189844 -0.019986868 -0.00031300262 0.02269851 -0.029234594 0.0498001 -0.017543871
0.014794324 0.007608056 0.048587028 -0.03407912 -0.02864911 0.028474275 -0.044119675 -0.03813939
-0.009128761 -0.025311429 0.040022787 -0.04961703 -0.017550033 -0.00493595 -0.035086446 0.043007586
-0.040336363 0.011360116 -0.04115048 0.03247622 -0.018529642 0.027431164 -0.04960844 0.045170877
0.001763571 0.045836154 -0.012903858 0.037151698 0.040610287 0.04280879 -0.029937899 -0.017052162
0.008629847 0.0063322186 -0.04192068 0.036235478 0.0017221458 0.00816799 0.0019701496 0.019503493
0.0037631877 -0.005566083 -0.029399395 -0.032421164 0.019560639 0.0072088614 0.03780883 -0.0055163875
0.043223623 -0.027313812 0.012028344 -0.04977567 -0.042710494 -0.033297636 0.040123705 0.044909094
-0.048465516 0.02487779 0.025248263 -0.023256296 0.038518306 0.0234163 -0.021813327 -0.029474247
0.029079933 -0.032730363 0.005620878 -0.033688232 -0.0026761517 0.025989871 -0.033659954 -0.02674905
0.027772073 0.049065027 -0.01467935 0.02240545 0.03900033 0.024445329 -0.024711926 -0.009606402
-0.026209896 -0.016303938 0.014436122 -0.032878593 -0.0031747706 -0.014971066 0.027834114 0.039802257
0.022954036 -0.025371348 -0.0018525235 0.043877926 -0.044438224 0.009029377 -0.020892663 -0.003273964

fc1.bias f4 [120]
00000000: 404e d1ba 9684 0ebd ed41 9dbc 29e8 053d
00000010: a8c0 83bb d569 48bd 10c0 dfbc 30fa cfbb
00000020: 44fb 5d3c fe2e d23c c0b5 49bd b248 cd3c
00000030: 6855 c2bb 4259 963c fa70 813c fc09 513c
00000040: f0e4 f63b 0513 4abd 9bf3 123d 5cab 773c
00000050: 9807 62bc 2838 09bd d6a5 b13c be88 9f3c
00000060: 581f dabb a20e 843c 670c d1bc 3056 f43b
00000070: 8d97 07bd 1a46 d8bc 18a1 c23b 2262 18bd
00000080: e83f 453c 325b fe3c e0af 2f3c c2f7 b43c
00000090: 403a ba3b ca20 863c 4254 f63c 055d 3e3d
000000a0: 53a8 a1bc ee3b d83c 7d00 373d d210 a63c
000000b0: 4476 04bd d33e d5bc 9d4d 32bd ca0a 1abd
000000c0: 274d b1bc dbfc 0cbd 0040 98b9 3293 903c
000000d0: ac0a 30bc 411f 273d 0b0f 133d 2afb c93c
000000e0: 680e 1cbd 3adc b9bc 3f2d 473d 8c18 23bc
000000f0: 9880 cdbb d274 f03c c0a3 db3b 9018 f73b
00000100: c052 9b3a 4aee 49bd cbe7 40bd 7225 2ebd
00000110: a0fe 4c3b 2c06 02bc b432 04bd 207c debc
00000120: e82e b33b e021 293b d66f 8b3c 85f0 09bd
00000130: 2a6b b3bc 69b9 2d3d a69f 9d3c 1a6c e63c
00000140: ae95 b93c b4e6 583c 9982 023d 0052 70bc
00000150: 74ac 443c 68a8 dbbb 934f 2ebd 6033 f2ba
00000160: da14 23bd f820 2a3c 5498 4f3c 8f9b 373d
00000170: d24e ed3c 3a62 cd3c 5e45 bf3c 0aad 9a3c
00000180: 7133 3c3d 8130 213d 056c 2dbd e23e f93c
00000190: aa07 da3c b92e 293d 43bb ecbc 7b74 3abd
000001a0: d772 f9bc 52ad f93c d91a 033d d744 0d3d
000001b0: 3054 c13b ec34 413c 43d5 29bd 7db8 453d
000001c0: 6f7c 2dbd 128d a03c 5b5c 4cbd 5773 47bd
000001d0: f737 abbc 00ac 6f3a 1360 273d 2ecf 1ebd
-0.0015968755 -0.034794413 -0.019196475 0.03269211 -0.004020769 -0.048929054 -0.027313262 -0.0063469633
0.013548676 0.025657173 -0.049245596 0.025059078 -0.0059305914 0.018353108 0.015800942 0.012758728
0.0075346157 -0.049334545 0.03587685 0.015116539 -0.013795756 -0.03350082 0.021685522 0.019474383
-0.0066565685 0.016120259 -0.02551861 0.0074565634 -0.033103514 -0.026400615 0.005939614 -0.03720296
0.012039162 0.031049345 0.010723084 0.022090796 0.0056832135 0.016373057 0.030069474 0.04647543
-0.019733584 0.026395764 0.0446782 0.020271692 -0.03233935 -0.026030933 -0.04353105 -0.037607946
-0.021643234 -0.03442083 -0.00029039383 0.017648313 -0.010744732 0.04080129 0.035903018 0.024655897
-0.038099676 -0.02268802 0.048627134 -0.009954583 -0.006271433 0.02935258 0.00670287 0.00754077
0.0011850223 -0.049299516 -0.047096055 -0.04251618 0.0031279698 -0.007936042 -0.032274917 -0.027158797
0.005468238 0.0025807545 0.017021101 -0.033676643 -0.021901686 0.04241315 0.019241165 0.028127719
0.02265438 0.013238598 0.03186283 -0.014667988 0.012004007 -0.006703425 -0.042556357 -0.0018478446
-0.039814807 0.010383837 0.012670595 0.044826087 0.028968249 0.025071252 0.023348507 0.01888134
0.045947496 0.039352898 -0.042339344 0.030425493 0.026614983 0.041304324 -0.028897887 -0.04552124
-0.030450268 0.030478153 0.032008026 0.03448948 0.0058999285 0.011792403 -0.041463148 0.048271645
-0.042354997 0.019598518 -0.049892765 -0.04869398 -0.02090071 0.00091427565 0.040863108 -0.0387718

fc2.weight f4 [84, 120]
00000000: 6a48 b8bd 18fa 7c3d 417e 97bd 542b 093d
00000010: a006 773d e0e1 253c 4039 9c3b 409c e93c
00000020: 941e b1bc 3b15 36bd 60d9 30bd 742a c03c
00000030: 106d b43d f9c6 31bd 3324 a5bd 428d 883d
00000040: 1e08 90bd 3188 03bd 6235 5bbd d428 a73d
00000050: 5c9c 173d 40ff d63c 56cb 8b3d e8ee 8b3d
00000060: ea8b eebc 6055 e83b 40d7 cd3a 2052 24bb
00000070: a0f7 22bc 3200 50bd da4d 60bd ec3b 9c3d
00000080: 6c95 b03d 746c 55bd 20ff d4bc c698 9cbd
00000090: c385 99bd 01d4 a6bd 701c 473d 3275 9e3d
000000a0: 924b 883d 7315 45bd a00c b03b d612 913d
000000b0: 9c9a cfbc 1c0b 733d 7e01 8b3d 7c77 503d
000000c0: 0059 87ba fcd0 803c 9e01 7cbd e485 943d
000000d0: 7a6e ab3d 1560 18bd e08b 563d 0c63 7ebd
000000e0: 0c3e 933d d316 97bd 68a7 7f3d 5088 1e3d
000000f0: 008d d139 f02c 6e3c 7041 64bd ecb8 b23d
00000100: bce6 8ebc 2efb ab3d d01b e03c 542b c0bc
00000110: d89a 8b3c 0099 a73d bee1 18bd 86cb 8e3d
00000120: 88e2 edbc 656f 9dbd 2a89 8c3d 56ea 46bd
00000130: 9cd3 9bbd 04aa 4ebd 64d4 e4bc 5636 56bd
00000140: d21a 8cbd 6821 c43c 885f 543d 9850 9f3d
00000150: be72 2ebd 4018 50bb 6cdb 9b3d 9f40 66bd
00000160: 2c04 aabd 70a2 2ebd cebe 9b3d 606c 263d
00000170: 9415 34bd 3c74 0ebd e8e0 42bc d28c b83d
00000180: 0824 313d 7834 393d ccfc f93c 7236 8d3d
00000190: 48b9 0d3d 80c5 8bbb e0b4 243d 4414 b9bd
000001a0: 5ef4 51bd 1059 7f3d 1858 713c 70fa 793d
000001b0: a092 30bc e06e 943d 8573 67bd 782b 0abc
000001c0: 2e0a b03d 7662 5dbd 802e 0f3d 8257 3ebd
000001d0: 38b5 923d c84a ff3c 5d86 5bbd 2040 94bc
000001e0: 23f5 4bbd 13d3 83bd db3c 7ebd 9e87 853d
000001f0: 1066 71bd 2174 02bd 2084 183d 304e e5bb
00000200: 3c63 613d f8bc 103c cc13 80bc 7435 963c
00000210: bc76 b0bd 90c3 8fbd 8a00 8abd 929c 83bd
00000220: e0e9 453c 17f1 69bd 3468 813c 60bc f83c
00000230: c85c 8dbd 2097 28bb f08f 77bd 000c d6bb
00000240: 7c0d a23d 9920 59bd 34b1 d5bc c0c1 e83a
00000250: 22d5 a03d acaa 643d 48d8 723d 6cce b4bd
00000260: d03f af3d 4ac3 b03d f813 34bd 287c 2e3d
00000270: c4d8 ef3c 30b4 ca3c da37 923d 4009 adbd
00000280: 4f14 80bd 9764 85bd a058 423d c5fd 2ebd
00000290: ae8c a53d 2750 93bd ba22 963d 7fd2 61bd
000002a0: 88f5 1cbc 2c29 a53d cc87 643d b845 353d
000002b0: e012 6dbd 85c2 a7bd 65b8 63bd 0410 843c
000002c0: bc4f 44bd 70d9 2e3d 177d 90bd 24b5 0c3d
000002d0: d2bc ad3d 7cb4 b73d 9cfb b33d d653 a4bd
000002e0: b4d1 173d 98f6 403d f91e a2bd ccd3 853d
000002f0: bc07 923d 2d91 6ebd e03f 85bb 8075 acbc
00000300: 3019 9d3d ac47 dc3c ee25 b13d 28cf a6bd
00000310: 98f0 6e3d 186c a73d dca6 463d e7d6 b4bd
00000320: db4c 27bd 8089 d9bc 94aa 513d 5890 b2bd
00000330: f0a1 5f3c e872 b53d cc27 9fbc 54fa 24bd
00000340: 5ccd 1d3d e0bf cabc 8425 c33c f004 533d
00000350: 54b5 82bd 105c bebb c423 2b3d bc80 743d
00000360: 1486 9d3d a8db 53bc 9856 91bc b0c2 4d3d
00000370: c09c ab3a e04d 7b3b 0118 9abd dc9e 553d
00000380: 93c7 b1bd d8d8 38bd 7cba 5abd 19f9 b0bd
00000390: 62dd b63d d7e5 4abd 11e7 39bd 004d 853d
000003a0: a80a 9d3c 10a6 9a3d e471 14bd 41ec 4abd
000003b0: 96a4 ab3d 1472 203d be4e adbd 9325 7abd
000003c0: 0eba 9a3d 484a 843c e45c d33c 026a 9cbd
000003d0: 48ac 31bc 5042 e3bc 24d5 a8bd 7a7f 04bd
000003e0: e0c3 32bb e065 213c b037 283d 48d0 cebc
000003f0: 2075 7abb 2c04 cdbc e4cd d03c b45c 223d
-0.08998187 0.061761945 -0.07397128 0.033488587 0.060309052 0.010124654 0.004767567 0.028516889
-0.021621026 -0.04445384 -0.043176055 0.023457743 0.088098645 -0.043402646 -0.08063545 0.06667568
-0.07032798 -0.032112304 -0.053517707 0.08162084 0.03701435 0.02624476 0.068258926 0.06832677
-0.02911945 0.0070902556 0.0015704408 -0.0025073364 -0.009946734 -0.050781436 -0.054761745 0.07628617
0.0862225 -0.052105382 -0.02600056 -0.07646327 -0.07496216 -0.08145905 0.048611104 0.07737197
0.06655039 -0.04811616 0.005372599 0.07083671 -0.025342278 0.059336767 0.06787394 0.0508952
-0.0010326207 0.015724652 -0.06152498 0.072521 0.08370681 -0.037201006 0.05237949 -0.062106177
0.07189569 -0.073774 0.06241551 0.038704216 0.0003996864 0.014537081 -0.05572647 0.08726677
-0.017444007 0.08397518 0.027357012 -0.02345816 0.017041609 0.08183479 -0.03732466 0.06972413
-0.029038683 -0.076872624 0.068620995 -0.048563324 -0.07608721 -0.05045511 -0.027933307 -0.052297913
-0.06841053 0.02394171 0.05184892 0.07779044 -0.042589895 -0.0031752735 0.07610211 -0.05621397
-0.08301577 -0.04263538 0.076047525 0.0406307 -0.04396589 -0.03477882 -0.011894442 0.09011234
0.043247253 0.045216054 0.03051605 0.0689515 0.034600526 -0.004265487 0.04021156 -0.090370685
-0.051258437 0.062340796 0.014730476 0.06102985 -0.010777146 0.0724771 -0.056506652 -0.008433215
0.085956916 -0.054048978 0.034956455 -0.046470173 0.07163471 0.031163588 -0.053594936 -0.018096983
-0.049794327 -0.064367436 -0.062069755 0.065200076 -0.058935225 -0.03184903 0.03723538 -0.006997846
0.055026278 0.008834116 -0.01563444 0.018336035 -0.08616397 -0.070197225 -0.06738384 -0.06426348
0.012079686 -0.057114687 0.015796758 0.030363262 -0.06902462 -0.0025724843 -0.060440004 -0.006532192
0.07912728 -0.053009603 -0.026085474 0.0017757937 0.07853152 0.055826828 0.059288293 -0.08828434
0.08557093 0.086309984 -0.043964356 0.042598873 0.029278167 0.024744123 0.07139559 -0.0844903
-0.062538736 -0.065133266 0.0474478 -0.042722482 0.08083473 -0.07193022 0.07330842 -0.055132385
-0.009580024 0.080644935 0.05579357 0.044255942 -0.05787933 -0.081913985 -0.055595774 0.016120918
-0.047927603 0.042687833 -0.07055109 0.034352437 0.0848328 0.089699715 0.08788225 -0.08023803
0.037065223 0.04711017 -0.07916064 0.06534538 0.071303815 -0.05824392 -0.0040664524 -0.021052122
0.0767082 0.026889645 0.08649813 -0.08144981 0.058334917 0.08174914 0.048498973 -0.08830052
-0.04084478 -0.026554823 0.051188067 -0.08718938 0.013649449 0.08859807 -0.019428156 -0.040277794
0.038525924 -0.024749696 0.0238216 0.05151838 -0.06382242 -0.0058093145 0.041782156 0.059693083
0.07691589 -0.012930788 -0.017741486 0.050234497 0.001309298 0.0038345978 -0.0752411 0.052153453
-0.08680644 -0.045128673 -0.0534005 -0.086412616 0.08928944 -0.0495356 -0.045386378 0.06508827
0.01917012 0.07551205 -0.036241427 -0.049541716 0.08381002 0.039171293 -0.084622845 -0.06107099
0.07555018 0.016148701 0.02580113 -0.07637407 -0.010844298 -0.027741581 -0.08243778 -0.032348134
-0.0027277395 0.009850949 0.041068733 -0.0252458 -0.0038216785 -0.025026403 0.025488801 0.03963919

fc2.bias f4 [84]
00000000: 2035 b9bc a874 493d 8047 2ebb 6a86 003d
00000010: 18e1 adbd d0f0 d73c a5cb a8bd f0cb 653d
00000020: 98a1 a3bd 42be 39bd 308f 4d3c 983b af3d
00000030: 0043 e5ba 0831 293d 088c 293d b132 07bd
00000040: e3d2 5fbd 3b57 35bd 8ab2 aebd e046 7fbc
00000050: 1c15 453d c023 463c 06bf 4ebd a0bf 4b3c
00000060: c01f 053c 90eb ed3c 75c0 26bd b8c4 c7bc
00000070: 235e 83bd 3ed3 963d 84d7 1c3d 3454 5d3d
00000080: a014 2fbc 5a68 b3bd b0f9 753c 64d2 873c
00000090: 3618 ab3d 8a12 a3bd 249d 033d 4429 97bd
000000a0: 90a2 4c3d aa05 9b3d d864 8fbd 00de 6eba
000000b0: 27b3 58bd 77cc 0bbd e495 543d 708f 5d3d
000000c0: 3ee9 7fbd b439 13bd d88f 203d 08d9 863d
000000d0: 3e5b ac3d 722d 8cbd baa6 82bd 2a86 b9bd
000000e0: 74bf babd 2097 453d 78f1 ad3d f47a 843c
000000f0: 6007 2f3d de22 8b3d 48a7 423c 76b6 ba3d
00000100: c8c0 563c f062 8dbd b417 c73c d6ec 073d
00000110: e075 a13b ced2 b03d 6b35 19bd 3638 aabd
00000120: ca78 eebc a8a2 3c3c 96c3 af3d a4bd a3bd
00000130: 64b6 173d 5048 523d 0cf9 123d 0026 dab9
00000140: 7481 a43d 8399 77bd 4cb9 adbc a545 a3bd
-0.02260834 0.049183518 -0.002659291 0.031378187 -0.08490199 0.026359946 -0.08241967 0.056102693
-0.07989806 -0.04534746 0.012546346 0.085562885 -0.0017491281 0.041306525 0.04139331 -0.033007327
-0.054644477 -0.044272643 -0.085301474 -0.015580863 0.048115835 0.012093484 -0.050475143 0.012435824
0.008125246 0.029042989 -0.040710885 -0.024385795 -0.064144395 0.0736451 0.03829147 0.05403538
-0.01068607 -0.08760138 0.015013143 0.016579814 0.08354227 -0.079625204 0.032132283 -0.07380918
0.04995972 0.0756944 -0.07001656 -0.000911206 -0.052905228 -0.03413054 0.05190076 0.05409187
-0.062478296 -0.035943702 0.03919968 0.06584364 0.084158406 -0.068446055 -0.06379457 -0.09058793
-0.09118548 0.048239827 0.08493322 0.01617191 0.042731643 0.0679376 0.011880703 0.09116833
0.013107486 -0.069036365 0.024303295 0.03318485 0.004927382 0.08633958 -0.03740446 -0.08311503
-0.029110331 0.01151339 0.08582227 -0.079951555 0.037039176 0.051338494 0.03588204 -0.00041608512
0.08032504 -0.060449135 -0.02120652 -0.07972268

fc3.weight f4 [10, 84]
00000000: 2a4e 103d 4077 dd3a b40a 893c 2be9 9a3d
00000010: c89e f3bc 35fe c93d a09a f8bc 004c 1cbb
00000020: 24d9 a9bd 44d9 cf3c 7c24 cb3c 30f8 23bd
00000030: e4b9 853c 306d c6bb 6c0c 84bd a85f 61bc
00000040: baf1 6b3d db44 cebd 5c89 b83c 0254 2b3d
00000050: fc5a a9bd a5b8 d73d e566 d73d 50f7 aa3b
00000060: 6816 4f3c 3135 6bbd 7f51 973d a0e0 8a3b
00000070: db85 b9bd 90d5 153c 2459 d8bc a0b8 143c
00000080: 127b 323d 6b72 933d 7b91 d2bd d630 423d
00000090: d579 99bd a088 723b 7038 65bc 7a10 6e3d
000000a0: 2a2b 90bd 6803 513c 4eac 453d fe9a 053d
000000b0: 8133 ca3d fa63 443d 174b c7bd 9a7a 3c3d
000000c0: 78ac 28bc e0ce afbc 584d cbbc 4e1d 71bd
000000d0: 7cd7 88bd 60fa 09bc 34ed 98bd 6018 39bc
000000e0: 71e9 dc3d bc71 8c3c f23d 56bd 88d1 48bc
000000f0: 1c5e b1bd 2641 82bd a559 babd 3a5d 87bd
00000100: 59f4 d93d 0031 aa3a b291 033d 7287 3cbd
00000110: 9cfa 9dbd 4d17 8a3d 0b4d cdbd fe45 053d
00000120: 14cf 62bd 2f20 86bd 6cd6 a13c 26e6 37bd
00000130: d198 c93d 1bf6 afbd d8b6 2d3c c6dd 2bbd
00000140: bf4b 8f3d ccaf b83c 9e0a 42bd a62e 01bd
00000150: 59ce 6dbd 402b 643c b2d0 143d d4d2 98bd
00000160: 8b89 c0bd 4420 5bbd 4e6c 493d 501e c2bd
00000170: b6d4 2b3d 7a33 483d dcb0 cc3c ae69 08bd
00000180: ee63 1b3d 6178 73bd 556f ad3d c8fd 133c
00000190: 252d c53d 55ad c0bd ce71 c1bd 0810 66bc
000001a0: 720c bfbd c883 13bd d9a3 893d 19ab b4bd
000001b0: f24c 10bd d67a 583d 2952 da3d 56fe a3bd
000001c0: 0ea7 0b3d 7cb8 8fbc 5d15 803d 180e 133c
000001d0: 70e7 813b 508e f3bb 4675 d2bd 4340 9c3d
000001e0: 7aee dcbd 3398 8f3d e0aa 6cbd fefa 323d
000001f0: e80d 093c 550d d23d 9bce 953d 36ab 473d
00000200: 9409 84bd f87a adbd 00b1 e4b9 38b6 3abc
00000210: c398 db3d 4f9d a33d f38e cebd 28a1 2c3c
00000220: a2d6 d9bd 3b57 b23d bce4 93bd bc6f a43c
00000230: 1ce1 f73c 003d 623b 808a 57ba 365a 703d
00000240: f403 d9bc 381a 10bc 38c3 dcbc 9ab5 053d
00000250: 45f4 833d 1bd8 b33d b2e8 c6bd 9636 b5bd
00000260: 2eb1 96bd c493 ed3c 2c83 1abd 8bb6 943d
00000270: 8f0d 813d 60d8 85bd c08d 11bc 13ae c43d
00000280: de14 15bd d302 ab3d 6670 6abd b78f dc3d
00000290: a1f3 84bd 3a37 4cbd baca 193d ce08 423d
000002a0: 5f44 ad3d 8444 873c 659a d63d 9134 943d
000002b0: 5798 d93d 0924 bbbd 57c4 a8bd 040c cd3c
000002c0: 4e86 6a3d 8acf 03bd 09dd 8a3d 6a5a 6d3d
000002d0: 54ed a5bd ac80 c7bc 39a5 de3d 0990 ad3d
000002e0: dd82 87bd ed8a 963d bf72 d53d c762 60bd
000002f0: 6f39 c4bd 7e4c dabd a592 b33d a3f2 953d
00000300: 381c b0bd ee86 153d e096 3dbc 06a6 233d
00000310: 8715 903d 764f 0fbd a31c b23d 70ef cfbd
00000320: c72f 7cbd 83a7 a0bd 8fa9 a33d bf96 d03d
00000330: 913d 9e3d a480 fa3c 5cbe c0bc e1c6 4dbd
00000340: c63e 6a3d 3b47 c73d 4df4 cb3d e9f3 a03d
00000350: 554d a83d c225 7f3d 9339 8a3d 444f 25bd
00000360: 800a 293a 00a0 9939 32c1 703d 640c 82bc
00000370: 2d7b 8f3d 5b94 46bd 941d f7bc 36fd 2bbd
00000380: 0071 f53b 2d79 893d 0099 f5b9 0c88 0abd
00000390: 9491 85bc c850 c0bd 0803 3dbc df43 dfbd
000003a0: a9c2 8fbd fe55 dcbd 7c3f 1ebd b3ce a03d
000003b0: fcd8 fd3c 8b14 cb3d 606a e6bb 105b c1bd
000003c0: 64b4 2bbd 792b 963d 4210 66bd 3388 bebd
000003d0: c94b d23d 98b9 a4bd f4c7 cc3c dd88 44bd
000003e0: 64a5 00bd f6b0 663d 7bed 9bbd c419 01bd
000003f0: f097 b83b 283e bebd 87f8 b83d 8491 dcbc
0.035230793 0.0016896501 0.016728736 0.075640045 -0.029738799 0.09862939 -0.030347168 -0.002384901
-0.082933694 0.025372155 0.02479767 -0.040031612 0.016323991 -0.0060554966 -0.06447682 -0.013755716
0.057603575 -0.10071727 0.022526436 0.041828163 -0.08269307 0.10533265 0.105176724 0.00521747
0.012639619 -0.057423774 0.07388591 0.004238203 -0.09058734 0.009145156 -0.026409693 0.009077221
0.0435744 0.07199558 -0.102816544 0.047409855 -0.07493941 0.0037007704 -0.0139905065 0.058121182
-0.07039483 0.01275716 0.048260026 0.032618515 0.09873105 0.047946908 -0.09731119 0.04601536
-0.010295026 -0.02146095 -0.024817154 -0.058865838 -0.066817254 -0.00842151 -0.07467118 -0.011297315
0.10786713 0.017144077 -0.05230517 -0.012256987 -0.08660528 -0.06360082 -0.090991296 -0.066095784
0.10642309 0.0012984574 0.032121368 -0.04602761 -0.077138156 0.067427255 -0.100244604 0.032537453
-0.055373266 -0.06549107 0.019755565 -0.04489722 0.098436005 -0.08591863 0.010602675 -0.041959547
0.06996869 0.022544764 -0.047373407 -0.031538628 -0.058058117 0.013926327 0.03633184 -0.07462087
-0.09401234 -0.053497568 0.049175553 -0.09478438 0.041950904 0.048877217 0.024986677 -0.03330391
0.037937097 -0.059440974 0.084685005 0.009032674 0.09627751 -0.094080605 -0.09445535 -0.014041908
-0.09328546 -0.03601435 0.067207046 -0.08821697 -0.03522963 0.05285152 0.10660202 -0.08007495
0.034094863 -0.017544024 0.06254075 0.008975528 0.003964357 -0.0074327365 -0.102762744 0.076294445
-0.10787673 0.070114516 -0.057780147 0.043696396 0.008365132 0.10256449 0.073147975 0.048747264
-0.064471394 -0.0847072 -0.00043619424 -0.011395983 0.10722496 0.079889886 -0.10085859 0.0105364695
-0.10636641 0.08708044 -0.07221362 0.02007281 0.030258708 0.0034521222 -0.0008222237 0.05867978
-0.026491143 -0.008795314 -0.026948556 0.032643892 0.06443075 0.08781453 -0.09712352 -0.08848302
-0.07358013 0.029001124 -0.03772275 0.0726138 0.06301414 -0.06535411 -0.0088838935 0.096035145
-0.036396854 0.08350148 -0.057236098 0.10769599 -0.06491781 -0.049857356 0.03754685 0.047371678
0.084603064 0.016512163 0.10478667 0.07236589 0.1062476 -0.091377325 -0.08240574 0.025030144
0.05725699 -0.032180347 0.0678044 0.057947554 -0.08101907 -0.024353348 0.108713575 0.08474738
-0.06616757 0.07350717 0.10422277 -0.0547817 -0.09581267 -0.10659121 0.087682046 0.0732167
-0.08599132 0.036505632 -0.011571616 0.039953254 0.07035356 -0.03498789 0.08696868 -0.10153091
-0.061569 -0.0784445 0.07991325 0.101850025 0.077265866 0.030578919 -0.02352827 -0.050238494
0.05718877 0.09730383 0.09958706 0.07859022 0.08217875 0.062291868 0.06749263 -0.040358797
0.0006448403 0.00029301643 0.058777995 -0.015875049 0.07005916 -0.048481327 -0.030165471 -0.041989528
0.0074902773 0.067125656 -0.00046844035 -0.03382115 -0.016304769 -0.09390408 -0.011536367 -0.10901617
-0.0701955 -0.10758589 -0.038634762 0.07851925 0.030987255 0.09916028 -0.007031724 -0.09441197
-0.04192008 0.073325105 -0.05616785 -0.09303322 0.10268361 -0.08043212 0.024997689 -0.047982085
-0.03140773 0.056321107 -0.07613655 -0.031518713 0.0056333467 -0.09289199 0.09031778 -0.026924856

fc3.bias f4 [10]
00000000: d834 2fbc 605e 8cbd 3817 8cbd b790 9cbd
00000010: f0cc be3b 634e 46bd 9027 413c 703a 16bd
00000020: 182f bdbd df45 8c3d
-0.010693751 -0.06853938 -0.06840366 -0.0764479 0.0058227703 -0.0484146 0.011789218 -0.036676824
-0.09237498 0.06849264
