model-generator/q_aware_model.tflite (tflite, 4304 bytes, 2 tensors)

sequential/quant_dense/MatMul;sequential/quant_dense/LastValueQuant/FakeQuantWithMinMaxVars i1 [10, 196] scale=0.021929473 zero_point=0
00000000: f907 0300 fa09 e70c 05ff fdfc 0603 f908
00000010: f2f1 150d 100c 0cec e7d4 1504 0023 090e
00000020: 0d07 fc08 0a03 fddf e6fb fc1e 3116 0b0c
00000030: 0307 0309 04fb bc02 0919 1d08 0b13 0205
00000040: 130b fef9 baff 0d06 cecc bcb8 b1e5 1200
00000050: fae8 00fb 03e1 8184 bdf0 fafe fefb f8ee
00000060: 1704 03d7 0b27 1613 1308 04ff 0102 12f9
00000070: 0017 1018 0d0b 0a04 0203 020c 1904 fefe
00000080: 0e0e 02fe 0b00 0708 0805 1e02 f724 0bfb
00000090: 0409 fef7 040f 1307 1c00 f71d 0a09 0700
000000a0: 04fc fa0d 0212 10fd fae9 0f08 0609 1510
000000b0: 06e4 f3fa 1001 0002 fafa 0008 0307 0208
000000c0: fa01 0404 fc01 0606 f908 1716 fbfb 0706
000000d0: 0602 fdee d623 462d 0708 0919 2525 0a01
000000e0: fcdd dafa 000a fe08 100c 1217 2dfd 02f7
000000f0: fc00 1502 f6fc f5ff ff07 68fd fcef fa06
-0.15350631 0.15350631 0.06578842 0.0 -0.13157684 0.19736525 -0.54823685 0.26315367
0.10964736 -0.021929473 -0.06578842 -0.08771789 0.13157684 0.06578842 -0.15350631 0.17543578
-0.30701262 -0.3289421 0.46051893 0.28508314 0.35087156 0.26315367 0.26315367 -0.43858945
-0.54823685 -0.9648968 0.46051893 0.08771789 0.0 0.7675315 0.19736525 0.30701262
0.28508314 0.15350631 -0.08771789 0.17543578 0.21929473 0.06578842 -0.06578842 -0.7236726
-0.5701663 -0.10964736 -0.08771789 0.6578842 1.0745442 0.4824484 0.2412242 0.26315367
0.06578842 0.15350631 0.06578842 0.19736525 0.08771789 -0.10964736 -1.4912041 0.043858945
0.19736525 0.54823685 0.63595474 0.17543578 0.2412242 0.41665998 0.043858945 0.10964736
0.41665998 0.2412242 -0.043858945 -0.15350631 -1.535063 -0.021929473 0.28508314 0.13157684
-1.0964737 -1.1403326 -1.4912041 -1.578922 -1.7324283 -0.59209573 0.3947305 0.0
-0.13157684 -0.52630734 0.0 -0.10964736 0.06578842 -0.6798136 -2.785043 -2.7192545
-1.4692746 -0.35087156 -0.13157684 -0.043858945 -0.043858945 -0.10964736 -0.17543578 -0.3947305
0.50437784 0.08771789 0.06578842 -0.8991084 0.2412242 0.8552494 0.4824484 0.41665998
0.41665998 0.17543578 0.08771789 -0.021929473 0.021929473 0.043858945 0.3947305 -0.15350631
0.0 0.50437784 0.35087156 0.52630734 0.28508314 0.2412242 0.21929473 0.08771789
0.043858945 0.06578842 0.043858945 0.26315367 0.54823685 0.08771789 -0.043858945 -0.043858945
0.30701262 0.30701262 0.043858945 -0.043858945 0.2412242 0.0 0.15350631 0.17543578
0.17543578 0.10964736 0.6578842 0.043858945 -0.19736525 0.789461 0.2412242 -0.10964736
0.08771789 0.19736525 -0.043858945 -0.19736525 0.08771789 0.3289421 0.41665998 0.15350631
0.61402524 0.0 -0.19736525 0.63595474 0.21929473 0.19736525 0.15350631 0.0
0.08771789 -0.08771789 -0.13157684 0.28508314 0.043858945 0.3947305 0.35087156 -0.06578842
-0.13157684 -0.50437784 0.3289421 0.17543578 0.13157684 0.19736525 0.46051893 0.35087156
0.13157684 -0.61402524 -0.28508314 -0.13157684 0.35087156 0.021929473 0.0 0.043858945
-0.13157684 -0.13157684 0.0 0.17543578 0.06578842 0.15350631 0.043858945 0.17543578
-0.13157684 0.021929473 0.08771789 0.08771789 -0.08771789 0.021929473 0.13157684 0.13157684
-0.15350631 0.17543578 0.50437784 0.4824484 -0.10964736 -0.10964736 0.15350631 0.13157684
0.13157684 0.043858945 -0.06578842 -0.3947305 -0.92103785 0.7675315 1.535063 0.9868263
0.15350631 0.17543578 0.19736525 0.54823685 0.8113905 0.8113905 0.21929473 0.021929473
-0.08771789 -0.7675315 -0.83331996 -0.13157684 0.0 0.21929473 -0.043858945 0.17543578
0.35087156 0.26315367 0.3947305 0.50437784 0.9868263 -0.06578842 0.043858945 -0.19736525
-0.08771789 0.0 0.46051893 0.043858945 -0.21929473 -0.08771789 -0.2412242 -0.021929473
-0.021929473 0.15350631 2.2806652 -0.06578842 -0.08771789 -0.37280104 -0.13157684 0.13157684

sequential/quant_dense_1/MatMul;sequential/quant_dense_1/LastValueQuant/FakeQuantWithMinMaxVars i1 [10, 10] scale=0.023332207 zero_point=0
00000000: c1e6 cff6 32d7 adfe f93c 21de 3406 e7bb
00000010: 2107 02d3 4328 0018 13e9 04d6 daed 22dc
00000020: c818 0909 1df2 19e2 cb0e f4c6 9e12 f324
00000030: e621 dd15 ebcb 0e07 fdbd 2fff 8b3a e8f6
00000040: 06ad ba34 0bfc 3dd0 11d9 0c1b 2bf1 8f06
00000050: be13 1a2d da02 f1dd 0411 81e8 17f4 f132
00000060: cb0a eceb
-1.469929 -0.60663736 -1.1432781 -0.23332207 1.1666104 -0.95662045 -1.9365731 -0.046664413
-0.16332544 1.3999324 0.7699628 -0.793295 1.2132747 0.13999324 -0.5833052 -1.6099223
0.7699628 0.16332544 0.046664413 -1.0499493 1.5632578 0.9332883 0.0 0.55997294
0.44331193 -0.53664076 0.093328826 -0.9799527 -0.88662386 -0.44331193 0.793295 -0.83995944
-1.3066036 0.55997294 0.20998986 0.20998986 0.676634 -0.3266509 0.5833052 -0.6999662
-1.236607 0.3266509 -0.27998647 -1.353268 -2.2865562 0.41997972 -0.30331868 0.83995944
-0.60663736 0.7699628 -0.8166272 0.48997635 -0.48997635 -1.236607 0.3266509 0.16332544
-0.06999662 -1.5632578 1.0966138 -0.023332207 -2.7298682 1.353268 -0.55997294 -0.23332207
0.13999324 -1.9365731 -1.6332544 1.2132747 0.25665426 -0.093328826 1.4232646 -1.1199459
0.3966475 -0.90995604 0.27998647 0.6299696 1.0032849 -0.3499831 -2.6365392 0.13999324
-1.5399256 0.44331193 0.60663736 1.0499493 -0.88662386 0.046664413 -0.3499831 -0.8166272
0.093328826 0.3966475 -2.9631903 -0.55997294 0.53664076 -0.27998647 -0.3499831 1.1666104
-1.236607 0.23332207 -0.46664414 -0.48997635
