model-generator/q_aware_model.onnx (onnx, 6622 bytes, 2 tensors)

sequential/quant_dense_1/MatMul;sequential/quant_dense_1/LastValueQuant/FakeQuantWithMinMaxVars i1 [10, 10]
00000000: c121 4322 cbdd 8b3d be81 e6de 28dc 0e15
00000010: 3ad0 13e8 cf34 00c8 f4eb e811 1a17 f606
00000020: 1818 c6cb f6d9 2df4 32e7 1309 9e0e 060c
00000030: daf1 d7bb e909 1207 ad1b 0232 ad21 041d
00000040: f3fd ba2b f1cb fe07 d6f2 24bd 34f1 dd0a
00000050: f902 da19 e62f 0b8f 04ec 3cd3 ede2 21ff
00000060: fc06 11eb
-63 33 67 34 -53 -35 -117 61
-66 -127 -26 -34 40 -36 14 21
58 -48 19 -24 -49 52 0 -56
-12 -21 -24 17 26 23 -10 6
24 24 -58 -53 -10 -39 45 -12
50 -25 19 9 -98 14 6 12
-38 -15 -41 -69 -23 9 18 7
-83 27 2 50 -83 33 4 29
-13 -3 -70 43 -15 -53 -2 7
-42 -14 36 -67 52 -15 -35 10
-7 2 -38 25 -26 47 11 -113
4 -20 60 -45 -19 -30 33 -1
-4 6 17 -21

sequential/quant_dense/MatMul;sequential/quant_dense/LastValueQuant/FakeQuantWithMinMaxVars i1 [196, 10]
00000000: f9fc ff02 fbf9 fe07 05ff 0701 fafd fcf9
00000010: f9ff fd04 0306 07fa f9fa f804 03fe 0006
00000020: f9fd fc00 00f8 fefe faf9 fc00 fa00 0607
00000030: f9fc 0908 fe00 02ff faf9 0202 e717 03fc
00000040: 18ea ef10 11fd 0c16 040e 09fc 04f3 fffa
00000050: 05fb 08ff ff03 08fb 01fe fffb 01fc fd03
00000060: 0103 fd03 fd07 0603 fffe 0605 fef8 fc06
00000070: 0106 ff01 ff01 fbfc 0606 07ff f8fc 0307
00000080: 0701 0302 0500 0502 06fd fc02 f9fd 0502
00000090: fdfc 0002 f906 08ee 0618 12dd 03ed 1011
000000a0: f2d6 d51b 1ae4 100a 25e9 f123 dc2c 22ce
000000b0: e540 0dc8 1546 e021 40ad de0b ddba 0d2d
000000c0: b330 47b7 ce1a eab7 1007 0021 1893 091a
000000d0: f1bd 0c08 000f e8a6 fd2d 09d3 0c09 dff5
000000e0: edde 0704 26d8 ec19 daf3 0af1 fc0e 3cbc
000000f0: e725 c500 f6f2 ee10 1fe3 d425 efe3 16e5
-7 -4 -1 2 -5 -7 -2 7
5 -1 7 1 -6 -3 -4 -7
-7 -1 -3 4 3 6 7 -6
-7 -6 -8 4 3 -2 0 6
-7 -3 -4 0 0 -8 -2 -2
-6 -7 -4 0 -6 0 6 7
-7 -4 9 8 -2 0 2 -1
-6 -7 2 2 -25 23 3 -4
24 -22 -17 16 17 -3 12 22
4 14 9 -4 4 -13 -1 -6
5 -5 8 -1 -1 3 8 -5
1 -2 -1 -5 1 -4 -3 3
1 3 -3 3 -3 7 6 3
-1 -2 6 5 -2 -8 -4 6
1 6 -1 1 -1 1 -5 -4
6 6 7 -1 -8 -4 3 7
7 1 3 2 5 0 5 2
6 -3 -4 2 -7 -3 5 2
-3 -4 0 2 -7 6 8 -18
6 24 18 -35 3 -19 16 17
-14 -42 -43 27 26 -28 16 10
37 -23 -15 35 -36 44 34 -50
-27 64 13 -56 21 70 -32 33
64 -83 -34 11 -35 -70 13 45
-77 48 71 -73 -50 26 -22 -73
16 7 0 33 24 -109 9 26
-15 -67 12 8 0 15 -24 -90
-3 45 9 -45 12 9 -33 -11
-19 -34 7 4 38 -40 -20 25
-38 -13 10 -15 -4 14 60 -68
-25 37 -59 0 -10 -14 -18 16
31 -29 -44 37 -17 -29 22 -27
